model_A.pt (torch, 85015 bytes, 5 tensors)

lstm.weight_ih_l0 f4 [256, 15]
0	0x3d37b45b	0.044849735
1	0x3db24690	0.08704865
2	0xbda2a885	-0.07942299
3	0xbda2ed2a	-0.07955392
4	0x3dc1908b	0.094513975
5	0x3d2aba52	0.041681595
6	0x3d0af84a	0.033928193
7	0xbd4544b4	-0.048161224
8	0xbced41e6	-0.028962087
9	0xbe04f1a2	-0.129828
10	0xbde22c26	-0.11043577
11	0x3d19e7ea	0.037574686
12	0xbd1cec5f	-0.03831136
13	0x3da44836	0.08021586
14	0xbd24edcc	-0.040265843
15	0xbc5e050b	-0.013551007
16	0x3d358e0d	0.044324923
17	0xbd8a1f1e	-0.067442164
18	0xbd87686e	-0.06611715
19	0xbd64323a	-0.055711962
20	0xbcad05b9	-0.021120893
21	0xbd82db9f	-0.06389546
22	0x3d934dd2	0.071925774
23	0x3cdc1e32	0.026869867
24	0x3de07f38	0.10961765
25	0xbcd47ab8	-0.025937423
26	0xbe0327fb	-0.1280822
27	0x3c415899	0.0118009085
28	0xbdb79f72	-0.08965959
29	0x3de3c37c	0.1112127
30	0x3d84927f	0.064732544
31	0x3da2d521	0.07950807
32	0xbe09ddca	-0.13463512
33	0xbd6a1839	-0.057152007
34	0x3be336d3	0.006934026
35	0x3dd9010f	0.10595905
36	0x3d8fcbf1	0.070213206
37	0xbdaff38d	-0.085913755
38	0xbde2b23d	-0.110691525
39	0xbe035c46	-0.12828168
40	0xbd9f5755	-0.07780329
41	0xbd7fa97f	-0.062417503
42	0x3d432b94	0.04764898
43	0xbe26fef5	-0.16308196
44	0x3bb81240	0.00561741
45	0x3d5ff1e6	0.05467405
46	0x3c95a44d	0.018266821
47	0x3db026b9	0.08601136
48	0xbdd6ad53	-0.10482278
49	0xbd79a396	-0.060947023
50	0xbd50f624	-0.051015988
51	0xbd8f0552	-0.06983437
52	0x3da005b0	0.07813585
53	0xbd97e10b	-0.074159704
54	0x3d58cff5	0.0529327
55	0xbc8bb93e	-0.017056104
56	0x3e466eb5	0.19378169
57	0x3ccc694c	0.024952553
58	0xbc011196	-0.007877728
59	0xbd500566	-0.0507864
60	0xbdc5f516	-0.09665887
61	0x3ae92ff1	0.0017790777
62	0xbdb06d41	-0.086145885
63	0x3d1d0ca5	0.038342137
64	0xbcae4e2e	-0.021277513
65	0xbe10bad5	-0.14133771
66	0xbde0f2e4	-0.10983828
67	0xbcc6569c	-0.02421122
68	0x3e10fe10	0.14159417
69	0xbd1dc57f	-0.038518425
70	0xbd9e5dc8	-0.07732731
71	0x3df77f6b	0.1208485
72	0xbd50a35f	-0.050937053
73	0xbd73d913	-0.05953319
74	0xbd46be73	-0.04852147
75	0x3cfd402f	0.030914394
76	0xbe030a59	-0.12796916
77	0xbde4f57e	-0.111796364
78	0xbd86a12e	-0.06573711
79	0x3e149bd3	0.14512567
80	0x3dd45bca	0.1036907
81	0xbc49a202	-0.012306692
82	0xbd134fe5	-0.035964865
83	0xbd153875	-0.036430795
84	0xbdf53924	-0.11973789
85	0xbdab765a	-0.08372183
86	0x3d1a5bdf	0.03768527
87	0xbdec5d0d	-0.115411855
88	0x3d815f6b	0.06317028
89	0x3d9635e1	0.07334495
90	0x3e157eca	0.14599147
91	0x3dc58ebe	0.096463665
92	0xbdb7cbcd	-0.08974419
93	0x3e0b6ca9	0.1361567
94	0x3d8cdea7	0.06878405
95	0x3d1b22d5	0.037875015
96	0xbd4ec351	-0.050479237
97	0x3e1517f9	0.14559926
98	0xbd31ae70	-0.043379247
99	0xbd3efcdf	-0.046627875
100	0x3e05fb0a	0.13084045
101	0x3c16716b	0.009182314
102	0xbda0a26f	-0.07843482
103	0xbe0560e3	-0.1302524
104	0x3da0cef2	0.07851972
105	0xbdab5bb1	-0.08367098
106	0x3d540cb3	0.051769923
107	0xbce9f515	-0.028559247
108	0x3ce8209f	0.028335867
109	0xbe0c7134	-0.13715059
110	0xbce87dcf	-0.028380303
111	0xbd34588f	-0.04402977
112	0x3daca474	0.084298044
113	0xbda942f8	-0.082647264
114	0x3c49c829	0.012315788
115	0x3de81019	0.113311954
116	0x3e07beee	0.13256428
117	0xbc81e498	-0.015856072
118	0x3d3efc3d	0.046627272
119	0x3cea7656	0.02862088
120	0xbccab9f8	-0.02474688
121	0x3c9f6447	0.019456996
122	0xbdd69ce0	-0.1047914
123	0x3df9fc94	0.122063786
124	0x3de5800b	0.11206063
125	0x3d1abd67	0.037778284
126	0xbc7570eb	-0.014980535
127	0x3e014cf3	0.1262701
128	0x3dcc48bd	0.09974811
129	0xbdd02cd1	-0.10164798
130	0x3d0f2b0b	0.03495316
131	0x3e17e219	0.14832343
132	0xbdb14433	-0.08655586
133	0x3c438989	0.011934646
134	0x3cb403e5	0.021974513
135	0xbe52d8d4	-0.20590526
136	0xbcc24997	-0.023716731
137	0x3de60193	0.11230769
138	0xbce21db9	-0.027602063
139	0xbcd9a5cc	-0.026568316
140	0x3da1b8cc	0.07896575
141	0x3e514f8b	0.204405
142	0x3d62ac24	0.055339947
143	0x3dfc2aa9	0.12312824
144	0xbd237c04	-0.039913192
145	0xbcbf88ef	-0.023380725
146	0x3d694844	0.056953683
147	0x3d6c9f50	0.05776912
148	0x3e17b2a9	0.14814247
149	0x3bc93bca	0.0061411606
150	0x3c747d66	0.014922475
151	0xbcb83d48	-0.022490159
152	0x3d811cf1	0.06304348
153	0x3dbc9d5f	0.09209704
154	0x3db521df	0.08844351
155	0x3d1cc5f0	0.038274705
156	0x3dd087e4	0.10182169
157	0x3dd74136	0.10510485
158	0x3db992b5	0.09061185
159	0x3df6c814	0.120498806
160	0xbcd909b0	-0.026493877
161	0x3e07e3e6	0.1327053
162	0xbbc666ec	-0.0060547497
163	0xbd4a1127	-0.049332764
164	0x3dc47d98	0.095942676
165	0x3d262e4b	0.040571492
166	0xbd972f03	-0.07382014
167	0xbc9c359e	-0.019068535
168	0xbd37aaf3	-0.044840764
169	0x3d39dcb5	0.0453765
170	0xbe47da50	-0.19516873
171	0xbe15079f	-0.14553688
172	0x3e372532	0.17885283
173	0x3dca7176	0.09884922
174	0x3d9adf4a	0.0756212
175	0x3dcb8216	0.09936921
176	0x3ca88119	0.020569371
177	0x3cb58493	0.022157943
178	0x3c152cf8	0.00910496
179	0x3dddffe6	0.108398244
180	0xbd943fe3	-0.07238748
181	0xbdbf683a	-0.093460515
182	0xbe0ba702	-0.13637927
183	0xbc840d4f	-0.016119627
184	0x3d66bddd	0.05633341
185	0xbc27a38c	-0.010231864
186	0xbd2111d9	-0.03932366
187	0xbde4be31	-0.11169089
188	0xbde4602b	-0.11151155
189	0xbd60586d	-0.05477183
190	0xbd86d376	-0.06583302
191	0x3dff4fd9	0.124664016
192	0x3d835490	0.064126134
193	0x3da24925	0.079241075
194	0x3df707df	0.12062048
195	0x3d1a0621	0.0376035
196	0x3d8889f9	0.06666941
197	0xbd98854d	-0.074473
198	0x3c70d712	0.014699714
199	0x3da8c9ce	0.08241616
200	0xbd211da6	-0.039334916
201	0xbd6fb655	-0.058523495
202	0xbc85dadc	-0.016339712
203	0xbdcf2bff	-0.101158135
204	0xbc17c3fb	-0.009263034
205	0x3d31dde0	0.043424487
206	0xbdb593ca	-0.08866079
207	0xbd412635	-0.047155578
208	0xbda51453	-0.08060517
209	0x3b86b5b8	0.004111018
210	0x3d5c40f2	0.053772874
211	0xbc8b6826	-0.017017435
212	0xbe26356b	-0.16231315
213	0xbe1ae8ce	-0.1512787
214	0xbdc3af00	-0.09554863
215	0x3d123c1e	0.035701863
216	0xbd67ccd1	-0.056591813
217	0x3c24d9b9	0.010061675
218	0xbd611ef7	-0.05496117
219	0x3cfff95d	0.031246835
220	0xbdd7a6c8	-0.10529858
221	0x3d623601	0.055227283
222	0xbd7ebc1f	-0.062191125
223	0xbd1cb69f	-0.0382601
224	0xbd8e5a93	-0.069508694
225	0x3c9dfd60	0.019285858
226	0xbbaf696b	-0.005353143
227	0x3b6e525b	0.0036365006
228	0xbd4973aa	-0.04918257
229	0x3da03ed1	0.07824481
230	0x3d45adae	0.048261337
231	0xbc39ea35	-0.011347343
232	0xbcf142d7	-0.029450817
233	0x3b350fe2	0.0027627875
234	0x3de68733	0.11256256
235	0xbd1b0be8	-0.03785315
236	0x3d5e3011	0.05424506
237	0x3d6a470f	0.057196673
238	0xbd527061	-0.051376704
239	0xbcab42f6	-0.020905953
240	0x3d8ac853	0.0677649
241	0xbdd136f7	-0.10215562
242	0xbdebfb7d	-0.11522577
243	0x3ca0e927	0.019642426
244	0xbe29f3ab	-0.16596858
245	0xbe17bc33	-0.14817886
246	0x3d0fb9e1	0.035089377
247	0x3deddcea	0.11614402
248	0x3dbf6789	0.0934592
249	0xbc0acc8f	-0.008471622
250	0x3dbe87d6	0.093032524
251	0x3d6ae4ab	0.05734698
252	0x3d2b6f89	0.041854415
253	0x3ccc5a2f	0.024945347
254	0xbde5c736	-0.11219637
255	0xbd777f13	-0.06042392

lstm.weight_hh_l0 f4 [256, 64]
0	0xbda2d1f4	-0.07950202
1	0x3ceb3545	0.028711924
2	0x3d5f3dfd	0.054502476
3	0xbdb3fa10	-0.0878793
4	0xbc83ca05	-0.016087541
5	0x3ce4423e	0.027863618
6	0xbd445980	-0.047936916
7	0x3959248c	0.00020708347
8	0xbe0e583e	-0.13900849
9	0xbd407bc2	-0.046993025
10	0x3dd97624	0.10618237
11	0x3d9245b6	0.071422026
12	0xbde76e89	-0.1130038
13	0x3e2cb7c6	0.16866979
14	0x3d7cdd13	0.06173427
15	0x3daf1f71	0.08550919
16	0xbd981e12	-0.074276105
17	0x3c188f30	0.009311482
18	0x3dff0598	0.12452239
19	0xbd44367e	-0.04790353
20	0x3db36264	0.08759001
21	0xbdba886f	-0.09108054
22	0xbdb71231	-0.089390166
23	0x3d23c823	0.039985787
24	0x3c992d07	0.018698229
25	0x3d8f5a0c	0.06999597
26	0xbdaffeb7	-0.08593505
27	0xbe1f56fd	-0.15560527
28	0xbe608b1e	-0.21928069
29	0xbc24b7b0	-0.01005356
30	0x3db1e60e	0.086864576
31	0xbdaf60d4	-0.085633904
32	0x3bb811e0	0.0056173652
33	0x3cc94a58	0.024571583
34	0x3d8a0ddb	0.06740924
35	0xbd91fd05	-0.07128338
36	0xbdc18563	-0.094492696
37	0xbd7db154	-0.06193669
38	0x3db86e70	0.09005439
39	0x3dc7b089	0.09750468
40	0x3d8f69ce	0.070026025
41	0xbc78bd25	-0.015181814
42	0xbdc58ef0	-0.09646404
43	0x3defe165	0.117129125
44	0x3dc66d55	0.09688822
45	0x3e19a32e	0.15003654
46	0x3de0ad68	0.109705746
47	0x3bab418c	0.0052263197
48	0x3e0328e7	0.12808572
49	0x3dcbb381	0.09946347
50	0xbdadc8d6	-0.08485572
51	0xbd036e39	-0.03208754
52	0xbda94753	-0.08265557
53	0xbd03768d	-0.03209548
54	0xbe1be394	-0.15223533
55	0x3d2438ef	0.04009336
56	0xbd470b24	-0.04859461
57	0xbcbbbdc6	-0.02291764
58	0xbe04004c	-0.12890738
59	0xbe15a135	-0.14612277
60	0xbdbd3117	-0.09237879
61	0x3de2d752	0.11076225
62	0x3e2b0bb3	0.16703682
63	0x3da53f82	0.08068754
64	0xbdcd7482	-0.10031988
65	0x3bb5662a	0.0055358605
66	0xbdc23e38	-0.094845235
67	0x3db9ba7b	0.090687715
68	0x3d053482	0.03252078
69	0xbde5ecee	-0.112268314
70	0x3da6d2c2	0.081456676
71	0x3de259dc	0.110522956
72	0xbd96409b	-0.07336541
73	0x3d64b6a7	0.055838253
74	0xbde1dbac	-0.11028227
75	0xbe0a6469	-0.13514866
76	0x3d67c818	0.05658731
77	0xbd79a4d6	-0.060948215
78	0xbdc5e92a	-0.09663613
79	0x3de72b4a	0.112875536
80	0x3df94532	0.12171401
81	0xbe1e1dd5	-0.15441068
82	0xbda16d74	-0.07882205
83	0x3dafa378	0.08576101
84	0xbdf3eef4	-0.11910811
85	0x3dbcae94	0.09212986
86	0xbdb8f29a	-0.090306476
87	0xbda393e2	-0.07987191
88	0xbd97e907	-0.07417493
89	0x3dac4b2c	0.084127754
90	0xba794160	-0.0009508338
91	0xbd672b17	-0.056437578
92	0x3d5032e8	0.050829798
93	0xbd461e9e	-0.048369043
94	0x3dfcb47a	0.12339111
95	0x3cb41afe	0.021985527
96	0x3dc42209	0.09576804
97	0x3d02e2a5	0.031954426
98	0xbd1640b6	-0.036682807
99	0xbdd26c79	-0.10274596
100	0xbd750c2f	-0.059826072
101	0x3dc14cff	0.09438514
102	0x3daaced3	0.0834023
103	0xbd4dad9d	-0.0502144
104	0x3db33e9b	0.087521754
105	0x3dd0d5ea	0.10197051
106	0x3c096383	0.008385542
107	0xbd5626c3	-0.05228306
108	0x3df10a98	0.11769599
109	0x3df79822	0.12089564
110	0x3de4447f	0.11145877
111	0xbd73dbe5	-0.05953588
112	0x3e0140b2	0.12622336
113	0xbde7ec05	-0.11324314
114	0x3ce451d5	0.027871052
115	0xbddd1187	-0.10794359
116	0x3d8fa160	0.07013202
117	0x3d21666f	0.03940433
118	0x3dd93df6	0.10607521
119	0x38317010	4.2304455e-05
120	0xbcf23a51	-0.029568823
121	0x3dabb1e4	0.08383539
122	0x3ddb0324	0.106939584
123	0x3e27f334	0.16401368
124	0x3d8aa3cd	0.06769524
125	0xbce223c8	-0.027604952
126	0xbcb6062a	-0.022219736
127	0xbd72277b	-0.059119683
128	0xbe104d1e	-0.14091918
129	0x3e338b6e	0.17533657
130	0xbce63262	-0.028100196
131	0x3e19dde8	0.15026057
132	0xbdf26f2f	-0.11837613
133	0xbd8921e1	-0.06695915
134	0xbddfd774	-0.10929766
135	0x3dd37fa0	0.10327077
136	0xbda41864	-0.08012465
137	0x3e02b3f7	0.12763964
138	0xbdf1396d	-0.11778531
139	0x3b3f80d8	0.0029221084
140	0x3d561901	0.05226994
141	0xbc741ce1	-0.014899463
142	0xbd3bc5a3	-0.045842778
143	0x3d21fa0d	0.039545108
144	0xbd477e38	-0.048704356
145	0xbe152e9d	-0.14568563
146	0x3dab5555	0.08365885
147	0x3d801ba1	0.0625527
148	0xbd688df1	-0.05677599
149	0x3deb6aa8	0.114949524
150	0x3b75f355	0.003752907
151	0xbdf63b52	-0.12023033
152	0xba3400a0	-0.0006866548
153	0xbdef8b8e	-0.1169654
154	0x3d87c410	0.06629193
155	0xbe29e613	-0.16591673
156	0xbdb2f1c1	-0.08737517
157	0xbd22ecb7	-0.03977653
158	0x3dace421	0.0844195
159	0x3dfce9c6	0.12349276
160	0xbdd05c28	-0.101738274
161	0xbba316f7	-0.004977103
162	0xbd8bfe8a	-0.06835659
163	0xbe1492a4	-0.14509064
164	0xbd04b791	-0.032401625
165	0x3c87d95f	0.016583143
166	0xbc835800	-0.016033173
167	0x3e592d08	0.21208584
168	0x3dc5bb38	0.0965485
169	0xbdee1733	-0.11625519
170	0xbb86bda1	-0.004111961
171	0x3e871d29	0.26389435
172	0xbc67ef77	-0.014156214
173	0x3cb7b9a9	0.022427397
174	0x3ddb0cbd	0.10695789
175	0xbc98dbfa	-0.01865958
176	0xbda5ccce	-0.08095704
177	0xbd18d4c0	-0.03731227
178	0x3cf0d1bb	0.029396882
179	0x3cae9d0f	0.021315126
180	0xbd0e4f10	-0.03474337
181	0xbd1e3bac	-0.038631126
182	0xbde22be8	-0.11043531
183	0xbd1f32ae	-0.03886669
184	0x3dc6b43e	0.09702347
185	0xbd090400	-0.03345108
186	0xbd592dac	-0.05302207
187	0xbd7d2a25	-0.06180777
188	0x3de0147c	0.10941407
189	0x3d2e6e0b	0.042585414
190	0x3cca543c	0.02469837
191	0x3da0b7ae	0.07847534
192	0xbe0bc26b	-0.13648383
193	0x3d5cfcd7	0.053952064
194	0x3d93102c	0.07180819
195	0x3d6bfdc1	0.057615045
196	0x3dbf904b	0.093536936
197	0x3d00ae8f	0.031416472
198	0xbd340cb3	-0.043957423
199	0x3d8f419f	0.06994938
200	0x3cd5b82d	0.026088798
201	0x3d99c3b4	0.075080305
202	0xbca6f0d1	-0.020378502
203	0x3d5b516f	0.053544458
204	0xbcefcb37	-0.029271705
205	0x3c8b4923	0.017002648
206	0x3e10ae74	0.14129049
207	0x3d9e4a0e	0.077289686
208	0xbd504e57	-0.05085596
209	0x3d4ef9d8	0.05053124
210	0xbe8d0b42	-0.27547652
211	0xbe17de16	-0.14830813
212	0x3dc76987	0.097369246
213	0x3cd980b2	0.026550625
214	0x3d892033	0.06695595
215	0xbd2ca8e8	-0.04215327
216	0xbdd71c18	-0.10503405
217	0x3d026b48	0.031840593
218	0xbb6015e8	-0.0034192745
219	0x3d851956	0.06498973
220	0xbced6c7a	-0.02898239
221	0xbc5b9ae9	-0.013403633
222	0xbdf92ee2	-0.12167145
223	0x3da5a300	0.080877304
224	0xbe05f8f8	-0.13083255
225	0xbe24850e	-0.16066381
226	0x3d8a85f7	0.06763833
227	0x3d853d88	0.06505877
228	0x3d679529	0.056538735
229	0xbd93c431	-0.07215155
230	0x3dbc8d16	0.092065975
231	0x3df2a16b	0.11847194
232	0x3da3128f	0.07962524
233	0xbdf306e9	-0.118665524
234	0xbe4a832e	-0.19776604
235	0x3de546ab	0.111951195
236	0xbe4d2f7e	-0.20037648
237	0x3dbfebdc	0.093711585
238	0x3c5714f3	0.013127553
239	0xbe2f7a8c	-0.17136592
240	0x3d09efee	0.03367608
241	0x3da3b8b6	0.07994215
242	0x3e15eccf	0.14641117
243	0x3ca9a9c8	0.02071084
244	0xbd6e4743	-0.05817343
245	0xbd3fccbf	-0.04682612
246	0x3d56c014	0.052429274
247	0x3e2a2b5c	0.16618103
248	0xbdb7ba01	-0.08971024
249	0x3ce8d406	0.028421413
250	0xbd903c5c	-0.07042763
251	0x3d69ae2e	0.057050876
252	0x3c146ef2	0.009059655
253	0x3e1a1e31	0.1505058
254	0xbd7d64a9	-0.061863575
255	0x3d18230d	0.037142802

lstm.bias_ih_l0 f4 [256]
0	0x3d21214b	0.03933839
1	0xbd671326	-0.056414746
2	0x3c6c0acd	0.014406872
3	0x3df028c2	0.11726524
4	0x3dbf84e0	0.09351516
5	0xbe0e1421	-0.13874866
6	0x3d16c110	0.036805212
7	0xbce77031	-0.02825174
8	0x3db26d59	0.08712263
9	0x3c02750b	0.0079624755
10	0x3de03db5	0.1094927
11	0x3dc8beb7	0.09802001
12	0x3d900bfb	0.07033535
13	0xbdcbf4a1	-0.09958769
14	0x3de50e0c	0.1118432
15	0x3d804948	0.06263977
16	0xbb908db2	-0.0044114226
17	0x3bf52459	0.0074811396
18	0xbc859f82	-0.01631141
19	0xbd4e1a42	-0.05031801
20	0xbbaa4e43	-0.005197318
21	0xbdeaa226	-0.114567086
22	0x3e0f5d13	0.14000349
23	0x3dc7336e	0.09726606
24	0x3d32ef9c	0.04368554
25	0xbd0afc1d	-0.03393184
26	0xbd32b301	-0.043627743
27	0x3cad7b7a	0.021177042
28	0x3d4c4b94	0.049876764
29	0xbe055692	-0.13021305
30	0x3c63b3c1	0.013897837
31	0x3d80f7c6	0.06297259
32	0x3a405970	0.0007337546
33	0xbd73473e	-0.059394114
34	0xbd55d8d3	-0.052208733
35	0xbdd3111b	-0.10305997
36	0x3dff2052	0.124573365
37	0xbdbbfa98	-0.09178656
38	0xbdeda7e2	-0.11604287
39	0x394e59e9	0.00019679185
40	0xbd69ad41	-0.057049993
41	0x3dfac660	0.12244868
42	0x3d7fb907	0.062432315
43	0x3bb44af5	0.0055020996
44	0xbd9b7747	-0.0759111
45	0x3dafdf84	0.08587554
46	0xbd885973	-0.06657686
47	0x3c2c29f6	0.010508051
48	0x3d94765c	0.07249138
49	0x3d7e7ab6	0.062128745
50	0xbda96530	-0.08271253
51	0x3d8dfc8f	0.06932937
52	0xbd6b12b4	-0.057390884
53	0xbb10caf1	-0.0022093619
54	0x3d708d6b	0.058728617
55	0x3d1b4c33	0.037914466
56	0x3e05841a	0.13038674
57	0xbde46a45	-0.11153082
58	0xbc704673	-0.014665234
59	0x3d9f5609	0.07780082
60	0x3db25f46	0.08709578
61	0xbce9e056	-0.028549355
62	0x3dcd580c	0.10026559
63	0xbd80d65e	-0.06290887
64	0xbd665c01	-0.056240086
65	0x3d0a80f2	0.033814378
66	0x3deac5f7	0.1146354
67	0xbe0c3220	-0.13690996
68	0xbd3a0908	-0.04541877
69	0x3dc20938	0.094744146
70	0x3d5a14e9	0.053242598
71	0xbdd2db3e	-0.102957234
72	0xbb82fc6a	-0.0039973753
73	0x3da7920a	0.081821516
74	0x3dd77a85	0.105214156
75	0x3de0bf20	0.10973954
76	0xbd94562f	-0.07243001
77	0x3ded5bdd	0.11589787
78	0x3d67edd4	0.056623295
79	0xbdb57220	-0.08859658
80	0xbd9c3df8	-0.07629007
81	0x3e11dceb	0.1424443
82	0x3b9522f6	0.004551287
83	0xbdd63011	-0.10458387
84	0x3d5a7c66	0.05334129
85	0xbdc9a34a	-0.09845598
86	0x3de43401	0.111427315
87	0x3db18817	0.08668535
88	0x3dfa4dfc	0.122219056
89	0xbd7bc2ec	-0.06146519
90	0x3decc0af	0.11560189
91	0xbd8603ad	-0.0654367
92	0x3d32d703	0.043662082
93	0xbd43a772	-0.04776711
94	0x3da61682	0.08109762
95	0x3be523b4	0.0069927815
96	0xbd7ff74f	-0.06249171
97	0xbd718122	-0.05896104
98	0xbd650ee5	-0.055922408
99	0x3bc75a7a	0.0060837837
100	0x3de6dc3e	0.112724766
101	0x3ddbb6d3	0.1072823
102	0xbdae3970	-0.08507049
103	0x3d92ffe1	0.07177711
104	0xba7d57c8	-0.00096642645
105	0x3d235c48	0.039882928
106	0x3e2dff05	0.16991813
107	0xbbb78c1a	-0.005601418
108	0x3e14aa5f	0.14518116
109	0x3b5d0081	0.0033722224
110	0xbd698c41	-0.057018522
111	0x3de53cbf	0.11193227
112	0x3df2b715	0.118513264
113	0x3e0c4cc9	0.13701166
114	0x3d0ab8d7	0.033867683
115	0xbd3e1fb8	-0.046416968
116	0x3e0e8891	0.13919283
117	0x3dc34488	0.09534556
118	0xbd3b2b8c	-0.045695826
119	0x3d610e8d	0.054945517
120	0x3ce05d86	0.027388345
121	0x3db81314	0.08988014
122	0x3cc7ae0d	0.024374986
123	0x3d74246b	0.059605043
124	0x3dde4c04	0.108543426
125	0x3dc09431	0.09403265
126	0x3e19cc07	0.15019237
127	0x3ddb93f1	0.10721577
128	0x3db41136	0.08792345
129	0x3d2e62f7	0.04257485
130	0x3d539c56	0.051662765
131	0xbd58e47b	-0.05295227
132	0xbdeb373b	-0.11485144
133	0x3bf49715	0.0074642994
134	0xbc2dc6ca	-0.010606477
135	0x3ce639b7	0.028103692
136	0xbcf2a7a5	-0.029620955
137	0x3dc5abbc	0.09651896
138	0xbb073c7c	-0.0020635417
139	0x3d49f721	0.049307946
140	0xbd57cd8d	-0.052686263
141	0xbcf82547	-0.030291213
142	0x3dc0ccf3	0.09414091
143	0xbe0124ef	-0.12611745
144	0xbe079ef2	-0.13244227
145	0xbdcef200	-0.101047516
146	0x3d793dba	0.060849883
147	0xbc24cc44	-0.010058466
148	0xbd331b0b	-0.043726962
149	0x3ca4ec06	0.020132076
150	0x3dc20a59	0.0947463
151	0xbdb0bf2a	-0.08630212
152	0xbdb7cee2	-0.08975007
153	0x3d65e6e5	0.0561284
154	0xbe02709f	-0.12738274
155	0xbd002546	-0.031285547
156	0xbd94476c	-0.07240185
157	0xbdb57e61	-0.088619955
158	0x3dc34efc	0.095365494
159	0x3db9981f	0.09062218
160	0x3c9b7ae3	0.018979495
161	0xbdbeca8e	-0.09315978
162	0xbd0d2ab0	-0.034464538
163	0x3dc9c4e4	0.09852007
164	0xbc6f0ca0	-0.014590412
165	0xbd7b32eb	-0.061327856
166	0xbb5cb05c	-0.0033674454
167	0x3dc772af	0.09738671
168	0xbe029e9b	-0.12755816
169	0x3ca1a450	0.01973167
170	0x3d81fd42	0.06347133
171	0xbdb194e2	-0.08670975
172	0xbde6c4c0	-0.11267996
173	0x3dc9bd21	0.098505266
174	0x3cc5af2d	0.024131382
175	0x3cd59f69	0.02607699
176	0x3c950ada	0.018193651
177	0xbdbf336b	-0.09335979
178	0x3dd88d17	0.10573786
179	0x3d87120c	0.06595239
180	0xbdca052b	-0.09864267
181	0xbdfb5a47	-0.122730784
182	0x3b4bcaba	0.0031096176
183	0x3d83a618	0.06428164
184	0x3cbf557b	0.02335619
185	0x3c6fbe91	0.014632837
186	0x3db26f75	0.08712665
187	0xbbe0950d	-0.0068537057
188	0x3c5d5a71	0.013510332
189	0xbda02fa2	-0.07821585
190	0x3dd661ca	0.104678705
191	0xbdbcd796	-0.09220807
192	0xbd681c3c	-0.05666755
193	0xbe10510a	-0.14093414
194	0x3e078dc2	0.1323767
195	0xbdb9f404	-0.090797454
196	0x3d52305f	0.05131566
197	0x3d3f04f6	0.04663559
198	0xbda96568	-0.08271295
199	0xbd9b9560	-0.075968504
200	0x3dc015dd	0.0937917
201	0x3c89bfbc	0.016815059
202	0xbde6ab3e	-0.112631306
203	0x3dc9a132	0.09845199
204	0x3d905f64	0.07049444
205	0x3d4a9c35	0.049465377
206	0x3e0d67ee	0.13809177
207	0x3b58bd7b	0.0033071924
208	0xbc154335	-0.009110262
209	0x3c1cc696	0.009568831
210	0xbc43d1c0	-0.011951864
211	0xbd1fbafd	-0.038996685
212	0x3daa0091	0.08300889
213	0x3be091f7	0.006853338
214	0x3d5526e4	0.052039042
215	0xbcbbcdae	-0.022925224
216	0x3ce5c1e0	0.028046548
217	0xbda44c60	-0.0802238
218	0x3cfcbd31	0.030851932
219	0xbdc040a2	-0.09387328
220	0x3d9cd66b	0.076580845
221	0x3d3a7765	0.04552402
222	0xbdc23b06	-0.09483914
223	0x3d8d64d5	0.06903998
224	0x3d8ce437	0.06879466
225	0x3d4b2e26	0.049604557
226	0x3d8788c8	0.06617886
227	0x3d28fb68	0.041255385
228	0xbd1532e8	-0.0364255
229	0xbd670460	-0.056400657
230	0xbdf1a76f	-0.117995135
231	0x3c1642f1	0.0091712335
232	0x3d9ac82e	0.075577125
233	0xbdd13770	-0.10215652
234	0x3d2d72e9	0.042345915
235	0xbda860f4	-0.08221617
236	0xbd97c802	-0.07411195
237	0x3d5226bd	0.051306475
238	0xbe07a06d	-0.13244791
239	0x3d8ef693	0.06980624
240	0x3dd63a3d	0.10460327
241	0x3d0cb66d	0.034353662
242	0xbbfe4221	-0.007759348
243	0x3db0bbda	0.0862958
244	0xbd24c221	-0.0402242
245	0x3d2b9774	0.041892484
246	0xbd18f447	-0.037342336
247	0xbd678dff	-0.056531902
248	0x3d979b30	0.074026465
249	0xbbf7affc	-0.007558821
250	0xbc8ecdbf	-0.017432092
251	0xbc6b2799	-0.014352703
252	0x3e0ef1ae	0.13959381
253	0xbd840ecc	-0.06448135
254	0xbc8e6876	-0.017383795
255	0xbd1b6375	-0.037936646

lstm.bias_hh_l0 f4 [256]
0	0xbc92ce99	-0.017920779
1	0xbc905b4b	-0.017621657
2	0xbdc167de	-0.09443639
3	0x3df11251	0.11771072
4	0xbc4bd3a8	-0.0124405995
5	0x3d599da5	0.053128857
6	0x3d61ee78	0.055159062
7	0xbcd71557	-0.026255293
8	0xbdbfa077	-0.09356778
9	0x3d1cfdcf	0.03832799
10	0xbd459a1c	-0.048242673
11	0x3dcb3b5f	0.099234335
12	0xbe0682e6	-0.13135871
13	0x3cdfe705	0.027331838
14	0x3dc12d73	0.09432497
15	0xbd410a1a	-0.047128774
16	0xbca6ba96	-0.020352643
17	0xbae2556e	-0.0017267892
18	0x3df3530b	0.118810736
19	0x3d9ddb2d	0.0770782
20	0xbceae2a2	-0.02867252
21	0x3dc98e8e	0.09841643
22	0x3cd3c447	0.025850428
23	0xbd8087b7	-0.062758856
24	0xbc0636cd	-0.008191776
25	0xbdaca11a	-0.08429165
26	0xbcaeaf02	-0.021323685
27	0xbe0a8687	-0.1352788
28	0xbd89e7bb	-0.06733652
29	0x3c57c256	0.013168892
30	0xbcc2631a	-0.023728896
31	0x3d1e0c72	0.038586088
32	0xbcff9b60	-0.031202018
33	0xbc9e26b2	-0.01930556
34	0x3ce92332	0.028459165
35	0x3d41ebd8	0.04734406
36	0xbc7475db	-0.014920677
37	0x3ce38d59	0.02777736
38	0xbe080407	-0.13282786
39	0x3c7ecbaf	0.015551492
40	0x3dd0fb45	0.10204176
41	0xbda9e4ad	-0.082955696
42	0x3e0adfc6	0.13561925
43	0x3dbafa15	0.091297306
44	0x3d929444	0.07157186
45	0x3e0c522b	0.1370322
46	0xbd74c490	-0.05975777
47	0x3df37ad2	0.118886605
48	0x3d62debc	0.055388197
49	0xbd862c63	-0.06551435
50	0xbd3b8876	-0.045784436
51	0x3dadf8e6	0.08494739
52	0xbb2305c1	-0.0024875256
53	0x3db62709	0.08894164
54	0xbe000395	-0.12501366
55	0x3dc047da	0.093887046
56	0x3d8e74f5	0.069559015
57	0x3d25840e	0.04040914
58	0xbc1bcbfd	-0.009509084
59	0x3d155719	0.036460016
60	0x3d060801	0.032722477
61	0xbd2f8e6c	-0.042860433
62	0xbd48684a	-0.048927583
63	0xbe013d18	-0.12620962
64	0x3de04feb	0.10952743
65	0xbdb0c75e	-0.08631776
66	0xbd4081a8	-0.04699865
67	0x3d316eb0	0.04331845
68	0x3d8d3d35	0.0689644
69	0xbd3c88b9	-0.046028826
70	0x3cdc0c08	0.026861206
71	0x3dfd4ca1	0.123681314
72	0xbde37f77	-0.11108296
73	0x3d84a673	0.0647706
74	0xbd99332f	-0.074804656
75	0x3ccc6372	0.024949763
76	0xbd6a9c35	-0.057277877
77	0xbd8d3a6a	-0.06895907
78	0x3daf3953	0.085558556
79	0xbc43c6f4	-0.01194929
80	0xbdf8c3f5	-0.12146751
81	0x3cdbfbdc	0.026853494
82	0x3cf6f39e	0.030145463
83	0xbcb1e775	-0.021716813
84	0xbd4cf561	-0.0500387
85	0x3aee29fb	0.001817047
86	0x3dff9bcc	0.12480888
87	0xbcc8cc07	-0.02451135
88	0xbda5cfae	-0.080962524
89	0xbd000687	-0.031256225
90	0x3c8091bb	0.01569449
91	0xbdf04899	-0.11732597
92	0xbd9c2413	-0.07624068
93	0x3b9f2034	0.004856134
94	0x3be90702	0.007111431
95	0x3d10a92a	0.035317577
96	0x3d8f431b	0.06995221
97	0x3d280815	0.041023333
98	0xbd8f2337	-0.069891386
99	0xbd644850	-0.055733025
100	0xbdba2d53	-0.09090676
101	0x3de9a352	0.11408104
102	0xbdb3bc1e	-0.08776115
103	0x3c3c36fb	0.011487718
104	0x3c7d5428	0.015461959
105	0xbcf3a596	-0.029742043
106	0x3be7c5f4	0.0070731584
107	0xbd08f044	-0.03343226
108	0x3c244ade	0.010027615
109	0xbdaa9395	-0.0832893
110	0xbd7eb5b8	-0.06218502
111	0x3dc980b6	0.09839003
112	0x3dfdd5d6	0.123943016
113	0x3d9ccef9	0.076566644
114	0x3ce9fa46	0.028561722
115	0x3d03f041	0.032211546
116	0xbd8456b3	-0.06461849
117	0xbe077bc0	-0.132308
118	0x3d0642b7	0.032778468
119	0x3c54b004	0.0129814185
120	0x3c5dee15	0.013545533
121	0x3c8c7490	0.017145425
122	0xbdb813fd	-0.089881875
123	0x3dbcd941	0.092211254
124	0xbd52e161	-0.05148447
125	0x3cc47972	0.02398369
126	0x3e0590d8	0.13043535
127	0xbdaf267c	-0.08552262
128	0x3cd06624	0.02543933
129	0x3d945864	0.07243422
130	0xbdf3d173	-0.11905184
131	0x3cd613ad	0.026132429
132	0xbd4c65d5	-0.049901802
133	0x3d68f0ff	0.056870457
134	0x3db05fa4	0.08611992
135	0xbdfce557	-0.123484306
136	0x3d9ebf2d	0.07751308
137	0x3e060807	0.13089
138	0xbdd0b3dd	-0.10190556
139	0x3e0705e3	0.1318584
140	0x3e04c5a0	0.12966013
141	0xbda41d94	-0.08013454
142	0xbd4f7e81	-0.050657753
143	0xbe06e6bf	-0.1317396
144	0xbc9358a4	-0.017986603
145	0x3d4b9142	0.049699076
146	0x3d5e28ff	0.054238316
147	0x3d6bae9e	0.057539575
148	0x3dae7121	0.085176714
149	0xbd911aa7	-0.07085162
150	0xbc031db2	-0.008002685
151	0xbdd1e1cd	-0.10248146
152	0xbc9db87d	-0.01925301
153	0x3cd765c1	0.026293637
154	0xbb0bc420	-0.0021326616
155	0x3d5465ae	0.05185478
156	0x3d006872	0.031349607
157	0xbd8f98e0	-0.070115805
158	0xbd4860f5	-0.04892059
159	0xbc79d176	-0.015247693
160	0x3d850231	0.064945586
161	0xbdad11ad	-0.08450637
162	0xbdb4bc71	-0.08825005
163	0x3daec0dd	0.085328795
164	0x3dd898ca	0.10576017
165	0xbc1727f9	-0.009225839
166	0x3d5a1250	0.05324012
167	0xbce689d1	-0.028141888
168	0x3dc94ea6	0.09829454
169	0x3dac7241	0.0842023
170	0xbce2911f	-0.02765709
171	0x3ddbd8d0	0.10734713
172	0x3cd7c26f	0.02633783
173	0xbd24e20f	-0.04025465
174	0x3d4df285	0.050280113
175	0x3c7b6de1	0.015346021
176	0xbdc208e1	-0.0947435
177	0x3d0d3c9a	0.034481622
178	0x3d5b5389	0.053546462
179	0x3c99fe13	0.01879791
180	0xbdc8b91c	-0.09800932
181	0x3d9bf6f2	0.076154605
182	0x3d0dc25f	0.034609195
183	0x3d5ffcb2	0.05468435
184	0x3d7428fb	0.059609395
185	0xbc16abd4	-0.00919624
186	0xbcaa6d41	-0.02080405
187	0x3d6d90b9	0.057999346
188	0x3ded9bd7	0.1160199
189	0x3d45e80e	0.048317008
190	0xbc21865b	-0.009858693
191	0x3d7922f4	0.06082435
192	0x3df49369	0.11942179
193	0x3da6d0f6	0.08145325
194	0xbd6a5353	-0.05720837
195	0x3db21d83	0.08697035
196	0x3d774377	0.060367074
197	0x3d21d1c1	0.039506678
198	0xbd2da0ef	-0.042389806
199	0xbd12e8a1	-0.035866383
200	0x3d7b44a1	0.061344747
201	0x3deef3e7	0.116676144
202	0xbdd70d55	-0.1050059
203	0x3c5c30a2	0.013439329
204	0xbd982656	-0.07429187
205	0x3d304b9b	0.043040853
206	0x3e1e2e6c	0.15447396
207	0x3d3327cd	0.04373913
208	0x3df72c9f	0.12069058
209	0x3e0dfab3	0.13865165
210	0xbd8831e4	-0.06650141
211	0x3dc016f0	0.09379375
212	0x3d74cc37	0.059765067
213	0x3e014dad	0.12627287
214	0xbdb3f663	-0.08787229
215	0x3ddce6c5	0.10786203
216	0xbd9a4db4	-0.07534352
217	0xbd5fa46e	-0.05460017
218	0x3cbca669	0.02302857
219	0xbd8fff7a	-0.0703115
220	0x3dc0b05a	0.094086364
221	0xbd989d73	-0.07451906
222	0xbd937d49	-0.072016306
223	0x3d197032	0.037460513
224	0xbd3e9599	-0.046529386
225	0x3cdfa674	0.02730105
226	0xbc85209a	-0.016250897
227	0x3d531db9	0.051542018
228	0xbdb33c04	-0.087516814
229	0x3d2483e7	0.040164854
230	0x39b1cfa6	0.0003391478
231	0xbd94e6e4	-0.072706014
232	0x3c9558b6	0.018230777
233	0xbd988bde	-0.074485525
234	0xbda554c7	-0.080728106
235	0x3dc4fcfa	0.09618564
236	0xbdbc4e09	-0.091945715
237	0xbdbb8a0d	-0.091571905
238	0xbcb94588	-0.022616163
239	0xbdacbddd	-0.08434651
240	0xbab22a9e	-0.0013593023
241	0xbd1898ce	-0.0372551
242	0xbd924307	-0.07141691
243	0xbc9cf59a	-0.01916008
244	0x3d17212c	0.03689687
245	0x3db8918e	0.09012137
246	0xbd93ba08	-0.07213217
247	0xbdd68e49	-0.104763575
248	0xbd80564d	-0.062664606
249	0x3d00b6bf	0.03142428
250	0x3cdb652d	0.026781643
251	0xbd3c6629	-0.045995865
252	0xbcf4ffef	-0.029907195
253	0xbdc32ebb	-0.095303975
254	0xbdebce98	-0.11514014
255	0x3c2d9241	0.010593952

fc.weight f4 [1, 64]
0	0xbda7accf	-0.081872575
1	0xbdb0d43a	-0.08634229
2	0xbd788b6a	-0.06067983
3	0xbaec8bbc	-0.0018047015
4	0x3d4272c5	0.047472734
5	0xbcaed1ed	-0.021340335
6	0x3dcd0f3c	0.10012671
7	0xbe0f4edd	-0.13994928
8	0xbd6042ee	-0.05475133
9	0x3dee81e8	0.116458714
10	0x3b49c9bc	0.003079041
11	0x3d90a357	0.070624046
12	0x3d9c9bd0	0.076469064
13	0xbd324874	-0.043526128
14	0x3c65eb71	0.014033184
15	0xbdd93f59	-0.10607786
16	0xbdcedd5a	-0.10100813
17	0x3d810480	0.062996864
18	0x3cae79eb	0.02129837
19	0x3d9e400c	0.0772706
20	0xbbffd28b	-0.007807081
21	0xbd259e63	-0.040434252
22	0x3db4b943	0.08824398
23	0xbda1b3bd	-0.078956105
24	0xbd05b7b8	-0.03264591
25	0xbd13ba0d	-0.036066104
26	0xbddcebbb	-0.107871495
27	0xbd74a472	-0.05972714
28	0x3cdc332f	0.026879875
29	0x3d878f9a	0.06619187
30	0xbd9c4c6c	-0.07631764
31	0x3d3201ca	0.043458737
32	0x3d7317f2	0.059349008
33	0x3dc1262a	0.09431107
34	0xbd499b13	-0.049220156
35	0x3d2f7fb1	0.042846385
36	0x3d640e8b	0.05567793
37	0xbd43fdf9	-0.04784963
38	0x3cd9294f	0.026508955
39	0x3d2c1127	0.042008545
40	0xbd4d4447	-0.050113942
41	0x3d2807d4	0.04102309
42	0x3dab6c2f	0.08370244
43	0x3bd18c07	0.0063948664
44	0xbdb7b961	-0.08970905
45	0xba72d8fd	-0.0009263901
46	0xbd75d089	-0.060013328
47	0xbd8ae88b	-0.06782635
48	0xbd05a705	-0.032629985
49	0xbdd665d3	-0.1046864
50	0x3ddc0771	0.10743607
51	0xbdb48a57	-0.08815449
52	0xbe01fc5b	-0.12693922
53	0xbdbfa9c7	-0.09358554
54	0xbddd6f0d	-0.10812197
55	0x3d7b4f47	0.0613549
56	0xbdc8621c	-0.09784338
57	0x3c662fce	0.014049483
58	0x3dbe95dd	0.09305928
59	0x3d7e4e5e	0.062086456
60	0x3dd90f6a	0.10598643
61	0xbd91c693	-0.07117953
62	0x3de5b7f1	0.11216725
63	0xbd52ccad	-0.051464725
