model_B.pt (torch, 85459 bytes, 6 tensors)

lstm.weight_ih_l0 f4 [256, 15]
00000000: 7346 49bc 89ea 3f3d d234 293d 2782 ea3c
00000010: b5a5 b13d e7b9 68bc ef99 4c3e 5a28 d0bd
00000020: a9a3 1dbc 4261 123e 9916 26bd 49b5 cabc
00000030: 863f bfbc 391f af3c a662 17be 6966 1d3e
00000040: e1aa afbd 9aab 37bd dd9b f83c 3d72 813d
00000050: 336f 8e3d 9d37 e0bc 81e8 143e 3406 b43d
00000060: 5918 3e3d be4a da3d 6c43 5d3d 86a7 153d
00000070: e89e c43c 2c93 303c d2c7 c4bc 03f8 e73b
00000080: aad9 94bd e187 c0bb 8c75 07be 81e6 cabc
00000090: dfbd 463d 9d64 283e d342 5cbd 7759 0cbe
000000a0: d222 25bc 0ca6 e43d e73d 613e a874 113c
000000b0: c2cb f53d 70a5 6ebc 93d6 0dbd e9fb d23c
000000c0: 42bc b73d 7d91 153d 5846 143e 7c29 083e
000000d0: 866e 5d3d e9dd 033e 7cb8 f83c 8899 8dbc
000000e0: 486f 9fbc 5864 423d e677 9abd f779 b5bd
000000f0: a770 ffbd 15e3 8ebd 7f92 d83d d031 bd3d
00000100: c96b da3a 69c7 8a3d 1cc4 02be e82e 823b
00000110: 7412 0b3a 61be d1bd 4cbe 9b3d fee0 1c3e
00000120: 396f a93d a23a 19bc 2ed7 1e3d 5cf1 5b3d
00000130: 16c0 333d b4c5 003e 5321 663d 5995 11be
00000140: 8b4c 3e3d 37f6 50bd 1019 403d 775e 9c3d
00000150: 4ad1 75bd b20f 28bc 00e9 a2bc 58b9 dabc
00000160: 7770 b13d 8fd1 c9bd d7f6 2c3b f94a 04bd
00000170: 8f76 1fbd 1c97 9c3d fca3 cbbd 0152 f9bc
00000180: d075 e63d 3da7 8f3d bbb9 6fbd b562 3fbd
00000190: f9f2 7fbd 6078 f9bd 95b9 a7bd 327f aebd
000001a0: 1451 ca3c 27b4 b53d 64f7 26bd 4cfe c8bc
000001b0: d020 64bd 1d87 4d3d fff8 e53d d01f 5fbd
000001c0: af8a dcbd ec16 bbbd 6524 0dbd e019 bebd
000001d0: 247e 0dbe 66ad b93c 3d49 3dbd 4e4f d3bd
000001e0: df76 10bd 94fb 2c3d 493e 0e3e c9c8 c93b
000001f0: 43bf 37bd f7eb f4bc edbe 07be a67d 9e3d
00000200: e989 013e ac60 a9bd ea45 033e 0a50 72bd
00000210: 962d 043e 063e 15b8 6890 c83c 4dad 1a3d
00000220: fb0d cebd b9a3 0abe e235 e83c ad95 47bc
00000230: d256 a3bc cd29 25bb ccc0 703d 4087 88bd
00000240: 62c5 95bd 4cbc 653d 139b f93d 265e 983c
00000250: 1d23 0c3c a295 113a d19c 0e3d 11a3 9a3d
00000260: 9483 82bd 9c5b 41bd dc86 a8bd 5d8d f93c
00000270: aba6 c23c bf6e 9ebd 0ac1 3c3d b384 e4bd
00000280: de04 f7bd 2c3f 7fbc 5d6a e73d 6087 c43d
00000290: 41a2 02bd 1cdf 1fb8 6963 ad3d 6c42 8f39
000002a0: be11 c43d 8a84 febc eaba b0bd f5dc eabc
000002b0: 278a d23c 9bfe bd3c 850d 07be 5e70 bcbd
000002c0: 34e4 12bd a748 2e3d 664b a53d 7114 ee3d
000002d0: c972 f03c eb5f db3d 01ab 483d 5695 acbd
000002e0: 3a44 02be 67a8 a93c f159 efbd cf3e 0cbc
000002f0: 7f70 f83d e82c 163c 1823 8d3b b222 8dbc
00000300: 018a e7bd 4385 ad3d 898f fdbd 7a8b d7bd
00000310: 51a6 673d 88e1 97bd b54c 9a3d cf08 03be
00000320: 5f44 9f3d fa31 c63c b55f 643d b880 473d
00000330: effe bf3d 455f acbd d5fa 663e b4a8 e6bd
00000340: 6df2 efbd 2e53 d3bc fe61 fbbc 2998 dc3d
00000350: e40a b73d 06b4 38bd 8e44 893d ce05 9fbd
00000360: 7f1e abbd 5e4a 95bd d6a9 d439 9293 bb3d
00000370: 961a a33c 2ad2 ff3d 07e7 8abb ae83 c93d
00000380: 1b3a a93b 2300 8dbd a57c e33d 1de0 e8bc
00000390: f65b 9f3d f2cd babd aec4 693d 75ea 3fbd
000003a0: f6b3 94bd e628 a2bd e8f2 72bd d8e5 8f3d
000003b0: ef82 203e 7252 c0bd 7fd0 4fbc d27c 11bd
000003c0: 88c3 87bd c62f 0b3e a277 f73d db22 703b
000003d0: d08a 903c 0042 27bd 66aa 343d 701d a43d
000003e0: 6776 d8bc 1e39 d73d 7dea 7cbd 68de 2fbc
000003f0: a23d 08be 3978 c73d a063 943d 4b72 283d
-0.012284863 0.04685453 0.04131014 0.028626515 0.08674184 -0.014204479 0.19980596 -0.101639464
-0.009621539 0.14294913 -0.040548895 -0.024744647 -0.02334572 0.021377193 -0.14783725 0.15371098
-0.085775144 -0.044841386 0.030347759 0.06320617 0.06954803 -0.027370268 0.14541818 0.08790246
0.04640994 0.10658787 0.054019377 0.036536716 0.024001554 0.010777276 -0.024021063 0.007079126
-0.072680786 -0.005875573 -0.13228434 -0.024768116 0.04852092 0.16444631 -0.053774666 -0.13706003
-0.010079103 0.111644834 0.2199627 0.008877911 0.12001754 -0.014565811 -0.034628462 0.025754886
0.08971454 0.0365157 0.14479959 0.13297075 0.05406048 0.12877621 0.030361407 -0.017285123
-0.019462243 0.047458977 -0.075424 -0.088611536 -0.124726586 -0.06976906 0.10574817 0.092380166
0.0016664203 0.06776316 -0.12770122 0.003972877 0.0005305179 -0.1024139 0.076046556 0.15320203
0.08273167 -0.009352358 0.03877943 0.053696975 0.04388436 0.12575418 0.056184124 -0.14217128
0.046459716 -0.05101606 0.0468989 0.07635205 -0.060014047 -0.010257648 -0.019886494 -0.026699707
0.08664029 -0.09854423 0.0026392245 -0.032298062 -0.038931426 0.07646009 -0.09943387 -0.03043461
0.1125294 0.0701432 -0.058526736 -0.046724994 -0.062487576 -0.12181163 -0.08189694 -0.08520354
0.024696864 0.08872252 -0.040763274 -0.02453532 -0.055695355 0.050177682 0.11229133 -0.0544737
-0.10768639 -0.091352314 -0.034458537 -0.09282279 -0.1381765 0.02266569 -0.046212424 -0.103178605
-0.035269614 0.04223211 0.13890947 0.0061579687 -0.044860136 -0.029897673 -0.13256426 0.07738809
0.12650265 -0.08270392 0.12819639 -0.059158362 0.12908015 -3.5582132e-05 0.02448292 0.03776293
-0.1006126 -0.13539018 0.028346006 -0.012181682 -0.01993886 -0.0025201917 0.058777615 -0.06666422
-0.073130384 0.056087777 0.12187781 0.018599581 0.0085532935 0.0005553608 0.03481752 0.07550634
-0.06372753 -0.047206506 -0.082288474 0.030462915 0.023761114 -0.07735967 0.046082534 -0.11158123
-0.12061475 -0.015579026 0.11299584 0.09596133 -0.03189302 -3.811634e-05 0.084662266 0.00027324574
0.095736966 -0.031069059 -0.08629401 -0.028669814 0.025700642 0.023192694 -0.13188751 -0.0920112
-0.035862163 0.042549755 0.08071022 0.11624993 0.029351609 0.10711654 0.048991207 -0.08426921
-0.12721339 0.020710183 -0.11687077 -0.008559897 0.12130832 0.00916598 0.004307162 -0.017228458
-0.11305619 0.08472683 -0.12380893 -0.1052465 0.056555096 -0.074160635 0.07534162 -0.12796329
0.077767126 0.024193753 0.055755336 0.04870674 0.093747966 -0.08416609 0.22556622 -0.11262646
-0.11716161 -0.0257965 -0.030686375 0.1077121 0.08937624 -0.04509356 0.06702529 -0.07764779
-0.08355426 -0.07289575 0.0004056233 0.09159006 0.019910138 0.124912575 -0.0042389664 0.09839569
0.0051643974 -0.06884792 0.111077584 -0.028427178 0.07781212 -0.09121312 0.057072334 -0.046854455
-0.07260887 -0.07917957 -0.059313685 0.07026261 0.15674947 -0.09390725 -0.012683987 -0.03551943
-0.066290915 0.13592443 0.12083365 0.003664187 0.017644316 -0.040834427 0.044107817 0.08013427
-0.026423646 0.10508941 -0.061747063 -0.010734178 -0.13304761 0.097397275 0.072455645 0.041124623

lstm.weight_hh_l0 f4 [256, 64]
00000000: 8f6d e33d 4f71 28be 96ab 16be 77cf 89bc
00000010: c8ee 9cbd 2f61 dabb f9b6 1a39 431c f6bd
00000020: a0b5 dfbd ed33 023e 1677 413d ea6d 2bbe
00000030: 27a1 433d 9f93 d8bd ff83 1f3e 3850 68bd
00000040: 4426 0fbe d451 e9bc 0705 4dbd 13e2 c33d
00000050: f403 58bc 686f 633e d464 d03d ea74 293e
00000060: f361 a73d 2b14 f6bc a7fb 273e f6f1 e73c
00000070: e5e2 5bbd 3c6f 26be 6cc0 dabd 734d 903d
00000080: 137d 92bb 845c 353e 29e1 253d 813a 2b3d
00000090: 56a6 93bd 3cdc d9bd 2d5d 28be 73e0 fc3d
000000a0: dab9 293e 76e1 e73b fe8e b1bd 1817 e03c
000000b0: 61f0 0cbe 49e4 56bd 6397 22bd 199e 21be
000000c0: d7fe 12be 6f67 673d a1b3 1abd 3c18 d93b
000000d0: b402 14bd 40bb 143c 9872 933d c55c 133d
000000e0: cfb0 e9bb a6ce 98ba 51c4 be3d d83c 033e
000000f0: c6a6 9c3c ac5d b43a ee0f 073e 885d 4a3d
00000100: e205 5e3b a974 17be 0689 6dbb c1e8 b43d
00000110: 11fc fbbd 6bcf bd3d 3c7b 363e b46f 6b3d
00000120: 713a 433b b363 b53d eb29 053e 25a8 0abe
00000130: 6eb5 403c c91e ca3d ea46 903d 05e5 c53d
00000140: 4de7 0bbe a2fd 593d d6c4 353d 75f6 c6bc
00000150: fc4a 553c 4fb0 263e 9454 153e 91b0 793d
00000160: e699 b5bc fa66 953d f6f3 693d a075 003d
00000170: 2cca bf3d 55eb c93d 6ff8 4fbe c74c 783d
00000180: 31e3 33be 5783 2bbb 04b5 193e a039 5a3c
00000190: 0cce 82bc 83ac a5bd cec8 d0bd 9e7d 563d
000001a0: a8bc b83d 4cb0 13be a660 d73d b59e 5a3d
000001b0: 5fe5 14be 0e33 0f3d 0438 5ebd ef91 8cbe
000001c0: 413b 4d3d 72b0 4d3c b847 2ebc 2cd6 dabb
000001d0: 04e3 9b3d c160 163e 0796 07bb e770 013d
000001e0: 5be4 49bd 524f 413d 2882 e13c 8538 d73c
000001f0: 05e8 d8bd d4cf b4bd 899f 233e c004 b2bc
00000200: e127 4f3d e5b5 13be 83ec 38bd 6b5b 46bd
00000210: c30e 43bc 1edb 0fbe 4d98 8abd 8668 6cbe
00000220: f707 643d 7fe6 2a3d d06a 86bd 45c3 8fbd
00000230: 7686 b93d 8f24 d33d def9 30bd 7740 70bd
00000240: 6008 103d 33a2 debd c3ab c43d 3671 53bd
00000250: 1455 783e 6ecd 6c3e 93f0 a2bd ef16 d53d
00000260: 8e13 433d ff2c ec3b 72ee af3d c0c9 41bd
00000270: bd41 83bc 8660 8b3e 10c5 07bd d823 7e3d
00000280: 197d e5bc 6439 043e bdd7 653e 0e8e 7b3d
00000290: c6ad 143d ef1d 783c 57d0 6bbd 56ed 1cbe
000002a0: 4a9f 0dbe 9d4f aa3d 6e97 203c be86 4c3e
000002b0: 5247 7fbd 1642 34be 4acd 09bd ee56 803d
000002c0: b1be 59be 7ac3 803e 3eab 833e 4728 0e3d
000002d0: 8a67 f43c 7f65 9f3d da2a 023d e04e 363e
000002e0: 46d5 323d 5991 1fbe 26db 3e3d 916d 293d
000002f0: 5005 fd3d 4225 1f3e 1539 fa3d b819 303e
00000300: 1c33 c6bd 2408 4abe 57c2 323d 4b8a 7bbc
00000310: 580f 49be 4a63 8a3d efd6 95b9 3b82 2abe
00000320: fdae 61bd fc54 d53c 52fb 34be 0a82 04be
00000330: c1f4 ca3a 43d1 cabc 2de0 b73c 3a78 6abd
00000340: a9fa b4bd 596b 913c 6d44 fe3d a488 dcbc
00000350: 2c9c b1bd d351 e53d f253 473c 8d23 283e
00000360: af86 9dbb 3a2b 063d a189 733d f218 d93d
00000370: 952f a3bc d1cf 193d 15dc 0fbe 36f1 003e
00000380: 1104 443c 7f33 acbd 3069 ffbd 9f66 593e
00000390: 19d3 0fbe b5db 8abd 6f29 25bd 6f32 4e3d
000003a0: 6be3 6cbc 2eb9 1abe b3e5 073e 9d08 3f3d
000003b0: 70eb a4bd 98d1 b0bd 1485 d13d 0c11 3cbe
000003c0: 892f 9c3d 31e5 eebd 1819 a7bd 422e 37bd
000003d0: b28b 92bc cffb e53c a8c8 ee3d c6c9 13be
000003e0: 6828 f5bc 3495 a73d c49a 913c 753b 38bd
000003f0: a171 fc3c fbed 21bd 8439 a7bd 9e0a e6bd
0.11104881 -0.16449474 -0.14713892 -0.01682256 -0.076627314 -0.006664417 0.00014754747 -0.12017109
-0.10923314 0.1271512 0.04723271 -0.16741148 0.04776111 -0.105750315 0.15577696 -0.056717128
-0.13979441 -0.028481402 -0.050053623 0.095646046 -0.013184536 0.22210467 0.101754814 0.16548505
0.08172979 -0.030038914 0.16404592 0.028313618 -0.05368318 -0.1625337 -0.10681233 0.07046022
-0.0044704764 0.17711073 0.040497933 0.04180384 -0.072094604 -0.106377095 -0.16441794 0.12347498
0.16574803 0.0070764376 -0.08669852 0.027354762 -0.13763572 -0.052463803 -0.039695155 -0.15782966
-0.14355026 0.056495126 -0.037768964 0.0066252034 -0.03613539 0.009077847 0.071995914 0.035977144
-0.007131673 -0.0011658266 0.09314788 0.12816179 0.019122493 0.0013760827 0.1318967 0.049405605
0.0033878018 -0.14790596 -0.0036245002 0.08833457 -0.12303937 0.092680775 0.17820448 0.057479575
0.0029789472 0.08856907 0.13004272 -0.13540705 0.011762006 0.09869153 0.07044776 0.09662823
-0.13662453 0.0532204 0.04437717 -0.024287442 0.013018366 0.16278194 0.14583045 0.060959402
-0.022168111 0.07295032 0.057117425 0.031362176 0.09364733 0.09859339 -0.20309614 0.060620096
-0.17567135 -0.0026170814 0.15010458 0.013319403 -0.015967391 -0.080895446 -0.101945505 0.05236589
0.09020358 -0.1442272 0.10516481 0.05337401 -0.14540623 0.0349608 -0.05425264 -0.27455088
0.050105337 0.012554275 -0.010637216 -0.0066783633 0.07611659 0.14685346 -0.0020688788 0.031601813
-0.049290042 0.047194786 0.027527884 0.026272068 -0.10591129 -0.088287026 0.15978827 -0.02173078
0.05057514 -0.14424856 -0.04514743 -0.048427027 -0.011905375 -0.1404843 -0.0676733 -0.23086748
0.05567166 0.041723724 -0.065633416 -0.070196666 0.090588495 0.103097074 -0.043207042 -0.05865523
0.035164237 -0.10870781 0.096030734 -0.05162164 0.24251205 0.2312524 -0.07956042 0.10404765
0.04762607 0.0072075124 0.08590402 -0.047311544 -0.016022557 0.2722208 -0.033146918 0.062045902
-0.028013753 0.12912518 0.22445579 0.06141477 0.036298536 0.0151438555 -0.057571735 -0.15324911
-0.13830295 0.08315966 0.009801729 0.19973275 -0.062323876 -0.17603335 -0.033643045 0.062665805
-0.21264149 0.25149137 0.25716585 0.03470638 0.029834528 0.07783031 0.031779148 0.17803526
0.043660425 -0.1558279 0.046595715 0.041364256 0.12354529 0.15541556 0.12217919 0.17197311
-0.09677717 -0.19729668 0.04364237 -0.015352796 -0.1963476 0.06757219 -0.00028579633 -0.16651241
-0.055098522 0.0260415 -0.17673996 -0.12940231 0.0015484319 -0.024757987 0.022445763 -0.057243563
-0.08836872 0.017751383 0.12415395 -0.026920624 -0.086723655 0.11197247 0.01216601 0.16419812
-0.0048073153 0.032756068 0.059457425 0.10600461 -0.01992015 0.037551705 -0.14048798 0.12592015
0.01196386 -0.084082596 -0.12471235 0.21230553 -0.14045371 -0.06780187 -0.040322717 0.050341066
-0.014458518 -0.15109703 0.13271217 0.046639074 -0.08052719 -0.08633727 0.10230461 -0.18365878
0.07626254 -0.116648085 -0.08159083 -0.04472185 -0.017888878 0.028074173 0.11659366 -0.14432439
-0.029926494 0.08182755 0.017773993 -0.044978578 0.030815901 -0.039533596 -0.08165267 -0.11232494

lstm.bias_ih_l0 f4 [256]
00000000: 6940 753d ca84 dcbc fb2f a73d bcaf e9bc
00000010: 8b61 263d d142 d1bd 2e82 9ebc 1710 993d
00000020: 5c67 bb3d 46ef 4f3d 40c8 f03d e9c5 183e
00000030: 41e0 f53c c33e 1c3e 2e63 89bc 217b e93d
00000040: 94b4 a33d 9f97 4b3d b049 723d 03b0 b4bd
00000050: 69c9 333d 6ddd d43d 063c 3cbd 90bb 93bd
00000060: 224d f83d c0d4 0dbe ef1e 29bd 243f cabd
00000070: ce63 b5bd 0422 813d 412d c73d e146 01bd
00000080: f5c0 ea3d 2222 8b3b 5055 99ba 2629 df3d
00000090: 2058 92bd 5cb9 c7bc 2427 cb3c 4bbc 5fbd
000000a0: fc32 91bb 5204 25bd ea88 c43d 9691 653c
000000b0: 7d51 a8bd 593d 3e3d 12db ca3d d601 373d
000000c0: e924 e2bc aec8 4f3d 9e86 763d 645b f03c
000000d0: 2ee4 a53d 8009 27bd b57a 47bd 0566 a93d
000000e0: 08c5 7bbd 02a6 3abd becb e4bd d460 663d
000000f0: a451 203e 4545 f6bc 96ad af3d 4c35 aa3d
00000100: d750 d93d 452a b83b 25a5 083e e94f dfbd
00000110: 5259 b9bd c9be 413d 1c5c 41bd fa05 e03d
00000120: efab db3d 6205 423d 6dac e03d ef97 153d
00000130: 82ac 933c 2891 c4bc d47a ad3d 367a 9fbd
00000140: 2fdb f93d 8a47 9cbd d59b 583d 61b4 8e3d
00000150: 8389 bd3b 1967 0dbe 01d2 183d 4ae1 9ebd
00000160: 6c5c 3c3d 6453 2ebd 6297 9cbd a39e 823c
00000170: ac53 53bd 4d04 a43d b512 86bd 18ca 003e
00000180: 48f2 25bd 13fc c63d 6516 e63d a066 30bd
00000190: e480 bc3d 99f6 de3c 8549 74bd 84fe 3abd
000001a0: f544 bebc 0803 ccbc 4d4b 913d 8357 fbbc
000001b0: 5f00 8fbd 95f2 b73c 536b c1bd b4f2 0c3e
000001c0: d573 8ebd b788 f23d 1bb8 dfbd 5edb 493d
000001d0: c693 a53d 33da ccbd 5ab1 743d 75ca 033d
000001e0: 0699 08bd 7df9 f83d 1bbc 903c 006d 4bbc
000001f0: 315f 3c3e f802 1a3d f5e7 983d 61a2 733d
00000200: affc 9f3d 540b 2abd 1e45 7bbd 5037 1e3e
00000210: 364d e0bd 625b 213d 5c57 a8bd 01bd a1bd
00000220: 314c 41bd 1e3b 3a3d abf6 89bd 9254 6cba
00000230: 5092 bc3d c827 d23d ed47 933d 5b8d 463d
00000240: 64a0 e5bd b606 5bbd ce2b 113e 0b06 aa3b
00000250: 7f69 073e 003c 843d bce9 2cbb 541d 02be
00000260: f09c 803d e287 b53d edaa 56bc 201a f6bd
00000270: 13b0 f6bc 3920 a6bd 813b f03c f07b ae3d
00000280: 168f 2dbd 0f68 963d 978f 8f3d 4a6c e23a
00000290: cd9b ebbd 348c bc3c e71d 9bbc 8b05 90bd
000002a0: 2a50 a13c af2e a23d 2d2f a0bc 2391 9abd
000002b0: 5b95 d23d dbe0 4e3c 0286 12be 76dc a4bc
000002c0: 2150 08be 4019 bd3d 1442 283d 16a8 15be
000002d0: e21b 093d 2afe c6bd 732d d13d 8710 7a3d
000002e0: 4ad2 f43b 0ef7 92bd 34c2 cbbd 14dc 8abb
000002f0: a162 783d 3155 b93c 42c8 83bc 55d3 eebc
00000300: 6824 0bbd 1c26 99bc bb7e 0c3d 201f 1ebc
00000310: b6df 533d 85f6 943d 398e ea3c 13b5 d53d
00000320: 8749 713d abd2 78bd b6e7 a83d 43d8 95bd
00000330: 0c92 34bd af37 0b3e 2b30 34bd f76e 303d
00000340: fc8c abbd d2db a23d 13f2 fe3c dd72 f5bd
00000350: ed2b 833d 2091 92ba 2bee fb3c fd52 983d
00000360: 7e0e 54bd dfe9 edbc c059 fa3b 4051 ca3d
00000370: 7a9d 41bd 9ba6 35bd fe8b a2bd b458 8ebc
00000380: 15f0 353d 0df1 babd be2f d8bd bf5a 9cbd
00000390: 8616 ee3d 2c68 c93d 81f2 333d db39 da3c
000003a0: e906 e0bd 8837 e63d ef1e 353c 9576 80bd
000003b0: cc1a ce3d 3728 68bd e30b 323d a724 a5bb
000003c0: 71af cf3d a70c e33d 5430 fd3c a16b 233e
000003d0: a492 91bd c90f be3b 0b9f 603c 46da 603d
000003e0: 6e18 bc3c 9f10 793d adf2 e8bd c708 18bd
000003f0: 2fb5 d53d 5504 e93c eb27 b2bd 328c 29bd
0.05987588 -0.026918788 0.081634484 -0.02852618 0.040620368 -0.10217822 -0.019349184 0.07473772
0.091505736 0.0507653 0.11756945 0.14919247 0.03001416 0.15258317 -0.016770925 0.11400438
0.07993427 0.049705144 0.059152305 -0.08822634 0.04389325 0.10393796 -0.04595568 -0.07213509
0.12124087 -0.13850689 -0.041289266 -0.09875324 -0.08856927 0.06305316 0.097254284 -0.031561736
0.11462585 0.0042460123 -0.0011698399 0.1089652 -0.07145715 -0.024380378 0.024798937 -0.05462293
-0.0044311266 -0.040287323 0.09596427 0.014011761 -0.08218668 0.046445224 0.099050656 0.044679485
-0.02760549 0.050728492 0.060186975 0.029340453 0.081001624 -0.040780544 -0.048701007 0.08271412
-0.0614672 -0.045568474 -0.11171673 0.056244686 0.15656143 -0.030062327 0.08578031 0.08310947
0.10611122 0.0056202733 0.13344248 -0.109039135 -0.090502396 0.047301088 -0.047206983 0.1093864
0.10726153 0.047368415 0.109703876 0.03652185 0.018026594 -0.023994997 0.08470693 -0.07786982
0.12200009 -0.076308325 0.052882988 0.06967998 0.005784215 -0.1380886 0.03730965 -0.07757814
0.045986578 -0.042559996 -0.076460615 0.015944785 -0.051593468 0.08008633 -0.06546537 0.12577093
-0.04051426 0.09716048 0.1123474 -0.04306662 0.092042714 0.027217196 -0.059640426 -0.04565288
-0.02322624 -0.02490379 0.070944406 -0.030681377 -0.06982493 0.02245454 -0.094442986 0.13764459
-0.06955687 0.118424825 -0.10923787 0.04928147 0.08084826 -0.10002556 0.059739448 0.0321755
-0.03334906 0.12156961 0.01766782 -0.012416124 0.18395688 0.037600487 0.07466117 0.05948103
0.078118674 -0.04151471 -0.061345212 0.15450788 -0.10952227 0.03939379 -0.082197875 -0.07897378
-0.047191802 0.045466535 -0.06736501 -0.00090152875 0.092075944 0.10261494 0.07191453 0.04847465
-0.11212233 -0.053473197 0.14176866 0.0051887087 0.13223837 0.064567566 -0.0026384434 -0.127065
0.062799335 0.08863808 -0.013102275 -0.12016702 -0.030113256 -0.08111615 0.029325249 0.08519733
-0.042372786 0.07344066 0.070098095 0.0017274704 -0.11504326 0.023016073 -0.018935157 -0.07032307
0.019691546 0.079190604 -0.019553745 -0.07547214 0.102823935 0.012626852 -0.14308932 -0.020124655
-0.13311817 0.09233332 0.041078642 -0.14614901 0.033473857 -0.09716447 0.10213747 0.061050918
0.0074713575 -0.07176028 -0.09949151 -0.004237661 0.060640935 0.02262363 -0.016086701 -0.029153505
-0.033970267 -0.01869493 0.034300547 -0.0096509755 0.05172702 0.07273582 0.02863227 0.10434928
0.05890801 -0.060747784 0.0824732 -0.07316639 -0.044084594 0.1359546 -0.04399125 0.043074574
-0.083765 0.07952084 0.03112129 -0.11984799 0.064048626 -0.0011182167 0.030753216 0.07437704
-0.051771633 -0.029042182 0.0076400936 0.098787785 -0.047269322 -0.04434834 -0.07936858 -0.017376281
0.044418413 -0.09128008 -0.10555981 -0.07634496 0.1162539 0.09834322 0.04393244 0.026638916
-0.10938818 0.112410605 0.011054738 -0.06272618 0.10063705 -0.056678977 0.043468367 -0.0050397697
0.10140885 0.110863976 0.030906834 0.15959026 -0.071080476 0.0058002216 0.013709794 0.05489566
0.022960868 0.060806867 -0.11374412 -0.037117746 0.10434949 0.028444448 -0.0869902 -0.041393466

lstm.bias_hh_l0 f4 [256]
00000000: 41ea 743d 6681 073e 37af 343e 5b37 843c
00000010: b05c 2ebc 5f43 d5bd c704 f4bd 3039 aabd
00000020: 8235 903d 3330 7fbc 0eac 89bd ca0a 6c3c
00000030: 998b 753c 116b 33bd 73eb c8bd 1dd4 b7bc
00000040: f770 ba3d eede 83bd f030 b33d 9980 203b
00000050: 15ed 6a3d 0a3d b93d 3690 56bd 1555 b03d
00000060: bdc1 c3bd 4d01 19be 8124 febd 0d54 b43d
00000070: 100f a93d 264e 7dbd 1a4e 96bd ee0a f03d
00000080: 6b2f b83d 071f b4bd fa0b f5bd a72a 20bd
00000090: fcd8 84bd 8806 c7bd 1a06 7dbd da77 2e3b
000000a0: 2d0c ed3c 4959 afbd 208a 94bc a6a2 4abd
000000b0: 7e72 bf3b c714 863d 81ce bbbd dc96 eb3d
000000c0: b3e9 c93d 8f59 cfbc aa86 343d c297 8c3d
000000d0: 3b28 f53d cf13 ad3c c6a3 173c 91d0 cc3d
000000e0: 97dc d23c 5872 d1bd 5b0f ca3d 4bab 6cbd
000000f0: a670 4ebd b097 bc3d c831 8e3d 819e af3d
00000100: c5f6 243e 1d32 8fbc 3b8f 073e adc0 2fbd
00000110: b725 28bd 1b0a 20bd f8a7 933d dc91 de3d
00000120: 8beb 953d 76e3 013e 5927 f4bd 6b65 64bd
00000130: 886c e1bd c8f1 36bd 3889 963d 4ebb e23c
00000140: da55 c83d 91d0 eabd 1a3c c73d e7c1 08bd
00000150: 1680 52bd f394 803d 0fa9 a2bd 61be 983d
00000160: 299c d63d cc90 ffbc 8045 d6bd ec65 5a3d
00000170: a14c 7ebd bc1b bf3d de7d 4d3d 6641 a83d
00000180: 23f1 ae3d 68c7 a5bb 2a64 39bd 8b63 153e
00000190: 8f16 373e 6c86 96bd 2423 3d3c 0167 0f3e
000001a0: 28e0 e23d 78c7 0abd e953 863d 81c4 80bc
000001b0: 84e7 af3d c09f 90bd f7b8 7ebc 89ad 1a3e
000001c0: 10ac e1bd 6d42 5ebd c2fd 023e 7259 1fbc
000001d0: 1a33 1c3e f2aa af3c e219 9fbc da38 51bd
000001e0: 40bb 86bd 7324 b2bd f345 03be 0fe4 0cbd
000001f0: 1b96 053d 6586 723d 67bc 61bd 49af 14be
00000200: f05d eebd fc5e c6bd 00cb af3d 8f09 f13c
00000210: 5651 e7bb 1d0e edbd a7c3 b83d d1ff 2ebd
00000220: 7aa9 ecbd 6e1c aeba 39a2 51bc 816b cf3a
00000230: 5386 d13d e54a 0a3e d7f6 11bd 462b 08be
00000240: d28f 2b3d 2f5a 58bd eb6d b0bd 22b9 523d
00000250: f2d8 073e 047b f8bd 2c3c c8bd 5c31 a03c
00000260: c4e6 fd3d c0e5 433d da9b 1c3c dc45 0dbd
00000270: fd29 9d3d 1951 f33d f33d 5abd 6833 dd3d
00000280: a049 f33b 6d8a 083e 12ae d43d 74c5 48bd
00000290: 7390 9bbd 0837 733d 8839 db3d 8181 d9bd
000002a0: 34e0 9bbd 7f5a 27bd bfd1 a6bd 1301 6b3c
000002b0: 2fc5 533d 74a5 17be b109 073d 0c91 e13d
000002c0: 3d78 c0bd 8351 8ebb fa17 fc3d f678 83bd
000002d0: 54c9 383d 9bc0 093c b31b 7e3c 888d 3a3d
000002e0: db3a 0b3e c39c e1bd 13ff 2ebd 8fe6 843a
000002f0: 974a 8bbd bb39 b73d 6971 09bd 33ff c1bc
00000300: 9963 fc3d b880 f03d e104 1bbd d1f6 fb3c
00000310: 0954 713c f8e8 94bd c5e4 133d e287 b83d
00000320: 79c1 f83d 2bd4 943d a2e4 8abb 1998 6cbd
00000330: cc60 f6bc a318 ecbc da46 05bd d966 873d
00000340: 1978 d73d 4faa d23b 0fc6 413d 39b6 b6bd
00000350: 37e3 ee3d 160f e6bd 98c0 13bc 8d33 f5bd
00000360: 9020 0cbd 9443 e8bd 02b7 84bd d0bc 3d3b
00000370: 1a1c 953d 7a27 873d f329 9bbb c08f e53a
00000380: 2703 7abd cac4 163d b7b0 df3b db7f 093e
00000390: dd97 ce3d 171c 98bd aeda a4bd e77f 3abd
000003a0: 4e79 8d3d 7e4d cabd c91d d13d 98af 97bd
000003b0: c4b7 f3bd f0d4 fb3d 125d f2b9 5d08 803d
000003c0: a8f4 4f3c de85 c9bb fd6f ad3d 078a 14bd
000003d0: a833 86bd 7f4c d23d f4c1 2b3e 7af4 913d
000003e0: f748 083e 73a4 cfbd 7f93 80bc 12c6 11be
000003f0: 9d4c 8b3c 7539 d6b9 21ed c2bd c756 d13d
0.059793714 0.13232955 0.17644964 0.016139677 -0.010642216 -0.10413241 -0.11914974 -0.08311689
0.07041456 -0.015575456 -0.0672227 0.014406869 0.014986896 -0.04380328 -0.098105334 -0.02244001
0.091035776 -0.06439005 0.087495685 0.0024490713 0.057355005 0.090448454 -0.052383624 0.08609978
-0.09558437 -0.14941902 -0.12409306 0.08805094 0.08254826 -0.061842106 -0.073391154 0.11720835
0.08993419 -0.087949805 -0.11965175 -0.039103176 -0.06486699 -0.097180426 -0.061773397 0.002662173
0.02893647 -0.08561952 -0.01813227 -0.04947152 0.005842506 0.06546932 -0.09170247 0.115033835
0.09859028 -0.02531126 0.04407374 0.06864883 0.11970564 0.02112761 0.009255355 0.100007184
0.025739951 -0.102268875 0.0986621 -0.057780545 -0.0504004 0.092086196 0.06943089 0.08575154
0.1610976 -0.01747995 0.13238232 -0.04290836 -0.041051593 -0.039072137 0.07209772 0.10867664
0.07320317 0.12684426 -0.119215675 -0.055760782 -0.11007029 -0.044664174 0.07350391 0.027677204
0.09782 -0.11465562 0.0972826 -0.033388045 -0.051391684 0.0627841 -0.079424016 0.07458187
0.10479004 -0.031196974 -0.10462475 0.053319857 -0.062084798 0.09331462 0.050168864 0.08215599
0.08542087 -0.0050591715 -0.04526154 0.14588754 0.17879699 -0.07349858 0.011544023 0.14004137
0.11077911 -0.033881634 0.06558973 -0.0157187 0.0858908 -0.0706172 -0.015547029 0.15105261
-0.110191464 -0.054262567 0.12792113 -0.009725915 0.15253869 0.021443818 -0.019421522 -0.05107961
-0.06578684 -0.086983584 -0.12819652 -0.03439718 0.032613855 0.0592102 -0.055111315 -0.14519991
-0.11639011 -0.096860856 0.08583641 0.029423503 -0.0070592565 -0.115749575 0.09021693 -0.042724434
-0.115557626 -0.0013283619 -0.012795025 0.0015824885 0.102306984 0.13505132 -0.035635795 -0.13297758
0.041885205 -0.05282038 -0.08614715 0.051446088 0.13266352 -0.12132838 -0.09777102 0.019554786
0.12397531 0.04782653 0.009558642 -0.03449045 0.07674024 0.118807025 -0.053281736 0.108008206
0.0074245483 0.13334055 0.10384764 -0.04901643 -0.07595911 0.059378654 0.107043326 -0.10620404
-0.07611123 -0.04085779 -0.08145475 0.014343518 0.05170172 -0.14809209 0.032968227 0.110139936
-0.09397934 -0.004343213 0.12309261 -0.06419556 0.045113876 0.008407737 0.015509534 0.04554513
0.1359667 -0.11016228 -0.042723726 0.0010139513 -0.06801336 0.08946558 -0.033555422 -0.023681259
0.12323684 0.11743301 -0.03784645 0.03075734 0.014729508 -0.07270998 0.036106844 0.090102926
0.12146277 0.0726703 -0.004238681 -0.05776224 -0.030075453 -0.028820341 -0.032538272 0.066114135
0.10520954 0.006428994 0.047308024 -0.08921475 0.116644315 -0.11233346 -0.009018086 -0.11972723
-0.03421074 -0.113410145 -0.064802185 0.0028951652 0.072807506 0.065993264 -0.0047352253 0.0017514154
-0.061038163 0.036808766 0.006826486 0.13427679 0.10087559 -0.07427233 -0.08049522 -0.045532133
0.06907903 -0.09878062 0.10210759 -0.07406539 -0.11900285 0.12296474 -0.0004622718 0.06251595
0.012692608 -0.0061499914 0.08468626 -0.036264446 -0.065528214 0.10268497 0.16773206 0.07126708
0.13309084 -0.10138788 -0.015695332 -0.14235714 0.017004305 -0.0004086007 -0.09517885 0.102216296

regime_embed.weight f4 [3, 8]
00000000: b3d6 3bbf 6e58 603f ac12 3e3f 679c 463f
00000010: 5686 883f 46a9 bbbf df1c bdbf 7fe6 b9be
00000020: 6de4 ebbf 41f4 183e e933 633f f16c 1bbc
00000030: 152b 06bf c215 dc3e f58c 57be 5508 22bf
00000040: 2016 7ebd 0890 c63e c090 9c3f a861 cfbf
00000050: 8032 87bd 3357 0ebf 248f 0040 0265 5f3f
-0.7337448 0.87634933 0.7424724 0.775824 1.0665996 -1.4661033 -1.4774436 -0.36308667
-1.8429085 0.14936925 0.88751084 -0.009486423 -0.5240949 0.4298535 -0.21049865 -0.63293964
-0.06203282 0.38781762 1.2231674 -1.6201677 -0.06601429 -0.55601805 2.0087366 0.872635

fc.weight f4 [1, 72]
00000000: 1983 2bbd b710 21bd f658 133d 0cff 583d
00000010: 97af 553c 5146 1fbd 6a35 b23d ca51 b7bd
00000020: 74a2 1bbd f76d 9b3d 29e9 b53d ad37 e13c
00000030: 1082 993d f7f0 303d 5841 b43d 53ee 633d
00000040: b383 89bd 6a4d 873d ed11 943d 6b2d 613d
00000050: 49af 933d 0fbc 94bd 2b4a d5bd e6d7 cfbd
00000060: baf1 6d3d 8fa5 15bd dbcd eabd 1b23 abbc
00000070: 983b 93bd f216 fb3d 04ea 23bd 450f 743c
00000080: 5026 9abd 73f3 033e ccb8 f83d a704 323d
00000090: 9ca8 b13d d130 7c3d af41 823d 203c 0cbe
000000a0: 012f 31bd 52c7 933d 4beb 9ebd 0ba8 f83d
000000b0: e445 d43c 7d9c 24bd 8008 e9bd 3db6 c9bd
000000c0: 2e30 0fbd d5d9 023d aed3 9d3d 840c 1ebd
000000d0: a270 813d 6611 163d c9cd 7f3d 2b14 fe3d
000000e0: f66e ad3d c472 3fbd ebdf a03d 3a38 593c
000000f0: 1640 c53c bdc7 d03d 501c cc3d 4dbd 563d
00000100: 656f 55bc 0d3c 303d eae7 8abd 5c23 03bd
00000110: 86e6 0cbd 66a1 1d3d 7af5 53bd d873 4c3d
-0.04187307 -0.03932258 0.03597351 0.052977607 0.013042352 -0.03888542 0.08701594 -0.08951147
-0.037996724 0.075893335 0.088823624 0.027492369 0.074955106 0.043198552 0.08801526 0.055647206
-0.06714573 0.066065624 0.072299816 0.054974955 0.07211167 -0.07262432 -0.10414537 -0.10148601
0.058091857 -0.036534842 -0.11465045 -0.020890763 -0.07189101 0.12260236 -0.040018097 0.014896219
-0.07526839 0.12885837 0.12144622 0.043461468 0.08674738 0.061569992 0.063601844 -0.13694811
-0.043257717 0.07215752 -0.07759722 0.12141427 0.025912233 -0.0401883 -0.11378574 -0.09849212
-0.034958057 0.031946022 0.0770639 -0.038586155 0.06320311 0.036637686 0.06245211 0.124061905
0.0846843 -0.04674031 0.07855209 0.013258034 0.02407841 0.10194347 0.09966338 0.052426625
-0.013027047 0.04302602 -0.06782515 -0.032016143 -0.03439953 0.038484 -0.051747777 0.049915165
