model_B.pt (torch, 75219 bytes, 6 tensors)

lstm.weight_ih_l0 f4 [256, 5]
0	0x3bc3a43a	0.005970505
1	0xbe45adb0	-0.19304538
2	0xbe144e63	-0.14483027
3	0xbcf12b01	-0.029439451
4	0x3d95a288	0.07306391
5	0xbcc8e39d	-0.024522597
6	0xbd0313e4	-0.03200139
7	0xbb9e4154	-0.004829565
8	0x3df0a78b	0.11750706
9	0x3e36edd4	0.17864162
10	0x3dddbcc8	0.10827023
11	0xbe089c16	-0.13340792
12	0x3daaac92	0.083336964
13	0xbdb5180e	-0.08842479
14	0x3dc7e989	0.0976134
15	0x3d189ff7	0.03726193
16	0xbd6064c4	-0.054783598
17	0x3caf36e7	0.021388484
18	0x3d5fabed	0.05460732
19	0xbd1f5ca7	-0.03890672
20	0xbd2ba27f	-0.041903015
21	0xbcf3e016	-0.029769938
22	0xbd9b89c5	-0.07594637
23	0x3e117f82	0.14208797
24	0x3cb24e07	0.021765722
25	0x3ba9f325	0.005186456
26	0x3d9e0bc7	0.0771709
27	0xbda72be6	-0.0816267
28	0xbde22de3	-0.110439084
29	0x3d7a9edf	0.061186668
30	0x3d8654c1	0.06559134
31	0x3e1694ca	0.14705196
32	0xbae4bf2a	-0.0017451991
33	0x3e657aae	0.2241008
34	0x3e2eefaf	0.1708362
35	0xbe42bd74	-0.19017583
36	0xbe053d0b	-0.13011567
37	0xbccae33e	-0.02476656
38	0xbdd0562b	-0.10172685
39	0xbe023183	-0.127142
40	0x3d9f8313	0.07788672
41	0xbdc06579	-0.093943544
42	0x3cf9f2aa	0.030511219
43	0xbb177d3c	-0.0023115417
44	0xbc63f7fc	-0.013914105
45	0xbd91414b	-0.07092532
46	0xbadb5fde	-0.0016736945
47	0x3e14d8aa	0.14535776
48	0x3da0849f	0.078377955
49	0xbda20cdc	-0.07912609
50	0x3dab973b	0.08378454
51	0xbb82d37c	-0.003992496
52	0xbd89491d	-0.067033984
53	0xbd76558c	-0.060140178
54	0xbd1cace4	-0.03825082
55	0xbdbc7f0c	-0.0920392
56	0x3dd074b5	0.1017851
57	0x3d637e5c	0.055540428
58	0x3e1b2294	0.1514991
59	0x3ccc50ef	0.024940936
60	0xbba6a297	-0.0050853
61	0xbc578b5d	-0.013155785
62	0x3d3aebfc	0.04563521
63	0x3d1f026c	0.03882067
64	0xbdc0eeaa	-0.094205216
65	0x3d5e9ad8	0.05434689
66	0x3c585e73	0.013206112
67	0x3d1a712d	0.03770559
68	0x3d893e3f	0.067013256
69	0x3e19454d	0.14967842
70	0xbda4b58c	-0.0804244
71	0x3ae4c0a2	0.0017452429
72	0x3cffedd9	0.031241344
73	0xbcc19dbc	-0.023634784
74	0xbd9abbec	-0.075553745
75	0x3d04f5d5	0.032461006
76	0x3aef6732	0.0018265008
77	0x3e16aeb0	0.14715075
78	0xbd83314e	-0.064058885
79	0x3e123405	0.14277656
80	0x3ca74550	0.020418793
81	0xbdb2f961	-0.087389715
82	0xbb9f638c	-0.004864162
83	0x3dca8293	0.09888186
84	0xbdeb59df	-0.11491751
85	0xbe066013	-0.13122587
86	0xbdc90907	-0.09816175
87	0x3c9cc5e8	0.019137338
88	0xbdd94a4f	-0.10609876
89	0x3e562e5a	0.20916119
90	0xbdee9674	-0.116497904
91	0x3db81deb	0.089900814
92	0x3d0c66c3	0.03427769
93	0x3dde7ada	0.10863276
94	0x3dbd17a7	0.09233027
95	0x3ccc3357	0.024926824
96	0xbaf8674b	-0.0018951682
97	0xbc5ca287	-0.013466484
98	0x3e5802b4	0.21094781
99	0xbcfbf672	-0.030757163
100	0x3e12842d	0.14308234
101	0x3d5daec5	0.05412175
102	0xbb789d3b	-0.0037935514
103	0x3eafc454	0.34329474
104	0x399e8980	0.00030238554
105	0x3d30ae5f	0.043135043
106	0x3d0f8efb	0.035048466
107	0xbbc4963a	-0.0059993537
108	0x3e012dc1	0.1261511
109	0x3da1b59a	0.07895966
110	0x3d3329e0	0.043741107
111	0xbd6b5d99	-0.05746231
112	0x3dae227c	0.08502671
113	0xbc26ef32	-0.010188865
114	0xbe10e2ec	-0.14149064
115	0x3c574cfb	0.013140912
116	0xbdf591f1	-0.11990727
117	0xbdd3117d	-0.1030607
118	0x3acc952c	0.0015608422
119	0x3db799b0	0.089648604
120	0x3e0b7607	0.13619243
121	0xbce04993	-0.027378833
122	0x3ddcceeb	0.10781654
123	0xbd881a2f	-0.06645619
124	0xbe157d86	-0.14598665
125	0xbdabac55	-0.08382479
126	0x3d798980	0.060922146
127	0xbae8ba81	-0.0017755778
128	0xb9263dca	-0.00015854012
129	0xbd7b6e1e	-0.061384313
130	0xbd97d6eb	-0.07414039
131	0x3dc35124	0.09536961
132	0xbdae587a	-0.08512969
133	0xbdd74499	-0.10511131
134	0xbaeb3afd	-0.0017946657
135	0x3daec8be	0.08534382
136	0x3ddf33d0	0.10898554
137	0x3e35937c	0.17732042
138	0x3db7af86	0.08969025
139	0xbd2f60a6	-0.04281678
140	0x3cffc357	0.031221075
141	0xbd8f78e8	-0.07005483
142	0x3ce09e11	0.027419122
143	0x3e02cf4a	0.12774387
144	0xbcd29d5a	-0.025709797
145	0xbddc598c	-0.10759267
146	0x3ca8dda5	0.0206135
147	0x3dc74453	0.09729829
148	0xbdc11a90	-0.094288945
149	0x3d10479c	0.035224542
150	0xbe0312e8	-0.12800181
151	0x3d433c4a	0.047664918
152	0x3cbd5bd3	0.023115074
153	0xbdaf17f1	-0.08549488
154	0x3dc27a10	0.09495938
155	0xbda128a1	-0.078690775
156	0xbd6e3de2	-0.058164485
157	0x3d6a06d6	0.057135426
158	0xbcda6252	-0.02665821
159	0x3e4279dd	0.189918
160	0x3d81f3d1	0.063453324
161	0xbd301d76	-0.042996846
162	0x3dba35e7	0.09092312
163	0xbd88c2a6	-0.06677751
164	0x3c09699d	0.008386997
165	0xbc1fa5c9	-0.009744116
166	0x3e101da0	0.14073801
167	0xbc14f330	-0.009091184
168	0xbd5762d7	-0.052584495
169	0xbd93888b	-0.07203778
170	0x3d65c70e	0.056098036
171	0x3e4102c6	0.18848714
172	0x3d3cd8df	0.046105262
173	0x3d11f420	0.035633206
174	0x3df83853	0.12120118
175	0xbdd2066a	-0.1025513
176	0x3de385ed	0.11109529
177	0xbd9c908b	-0.07644757
178	0x3ca793ec	0.020456277
179	0x3daff1e8	0.08591062
180	0xbe069d99	-0.13146056
181	0x3dcbb3de	0.09946416
182	0xbe1347b6	-0.14382824
183	0x3daf1760	0.0854938
184	0x3dc99510	0.098428845
185	0xbddeda0d	-0.10881434
186	0x3cf814bd	0.030283326
187	0x3d74ae46	0.059736513
188	0x3c3e1785	0.011602287
189	0xbd38e4aa	-0.045139946
190	0x3d7c98c2	0.06166912
191	0x3d02b310	0.03190905
192	0x3c2126a9	0.009835877
193	0xba3989e8	-0.00070777396
194	0x3db42b94	0.08797374
195	0xbe0cdc34	-0.13755876
196	0xbde552fd	-0.111974694
197	0x3d5e9180	0.05433798
198	0xbb7d7e69	-0.0038680083
199	0xbde5fb32	-0.11229552
200	0xbcdc713c	-0.026909463
201	0xbda9a0e0	-0.082826376
202	0x3d9ce256	0.07660358
203	0x3da646e4	0.0811899
204	0xbd4e04cb	-0.05029754
205	0xbcb00759	-0.021487879
206	0x3d84106d	0.064484455
207	0x3d681bd8	0.05666718
208	0xbda2a213	-0.079410695
209	0x3d238646	0.039922975
210	0xbd98e1e5	-0.07464961
211	0xbddccb63	-0.107809804
212	0xbdb7d8c8	-0.089768946
213	0x3d4395e1	0.047750358
214	0xbccf01c9	-0.025269406
215	0x3dfd7ecb	0.123776995
216	0x3d8a5f65	0.06756476
217	0xbe38ea37	-0.18058096
218	0xbe7c6028	-0.24646056
219	0x3d670904	0.056405082
220	0x3cc1053c	0.023562066
221	0xbabdd1aa	-0.001448204
222	0x3d39c18d	0.0453506
223	0xbe03005e	-0.12793109
224	0xbd91e643	-0.07123997
225	0xbd8c92f7	-0.06863969
226	0x3db40735	0.08790437
227	0x3dc83d7f	0.097773544
228	0xbdd175ad	-0.10227523
229	0x3d493fb4	0.049133018
230	0x3ccbd014	0.024879493
231	0xbd406b38	-0.04697725
232	0x3d63b9d2	0.055597134
233	0xbde736d4	-0.112897545
234	0x3d5a833a	0.053347804
235	0xbdf60e18	-0.12014407
236	0x3da5b610	0.08091366
237	0x3dafbd62	0.08581044
238	0x3e422c17	0.18962131
239	0x3e023e18	0.12719
240	0xbd50c407	-0.050968196
241	0x3d0f0c32	0.03492374
242	0xbd35e4cd	-0.044407655
243	0x3c52daf4	0.012869585
244	0xbda05a75	-0.07829753
245	0xbbb79ace	-0.005603171
246	0x3c43d0a6	0.011951601
247	0x3bb2704c	0.0054455157
248	0x3d3f3e85	0.046690483
249	0x3c823033	0.015892124
250	0xbd78266b	-0.060583513
251	0x3e8c2ca9	0.27377823
252	0x3e1c5da8	0.15270102
253	0x3d79c836	0.06098195
254	0x3dd089d4	0.10182539
255	0x3d926278	0.07147688

lstm.weight_hh_l0 f4 [256, 64]
0	0xbd285b3e	-0.04110264
1	0xbe17cdaa	-0.14824548
2	0xbd729e04	-0.059232727
3	0x3d12c81a	0.035835363
4	0xbdd64273	-0.10461893
5	0x3d014817	0.03156289
6	0xbd9ff266	-0.07809906
7	0xbd97fabb	-0.0742087
8	0x3cd65b14	0.026166476
9	0xbdb53686	-0.0884829
10	0xbe3ed607	-0.18636332
11	0x3ca7fcc0	0.020506263
12	0xbd047019	-0.032333467
13	0xbe166281	-0.14686014
14	0x3d969746	0.07353072
15	0x3e21afb5	0.15789683
16	0xbc383ede	-0.011245457
17	0xbdfa2cc3	-0.12215569
18	0xbe1014c6	-0.14070424
19	0x3c5d78d6	0.013517579
20	0x3e397661	0.18111564
21	0xbd95ea9e	-0.0732014
22	0x3cd21aa4	0.025647469
23	0xbdf5f02c	-0.120087
24	0x3d48df7f	0.049041267
25	0xbe823a98	-0.25435328
26	0xbc6733e1	-0.01411149
27	0x3d0bcd2f	0.034131225
28	0x3c60f455	0.013730128
29	0x3e27e40a	0.16395584
30	0xbd95bb84	-0.073111564
31	0xbd04d955	-0.032433826
32	0xbd1adbcb	-0.037807267
33	0xbe1bf197	-0.15228878
34	0xbc3f0bdd	-0.011660543
35	0xbe1b9e8d	-0.15197201
36	0xbd5ae15d	-0.05343758
37	0x3e2dd32c	0.16975087
38	0xbc2786ff	-0.010225057
39	0xbd88cbd2	-0.06679501
40	0x3e2d51d5	0.16925748
41	0x3d55195b	0.052026134
42	0xbe3d2963	-0.18472819
43	0xbe15b6ba	-0.14620486
44	0x3d4ea778	0.05045268
45	0x3d9bb789	0.07603366
46	0x3d8dab13	0.069173954
47	0x3e1d5687	0.15365039
48	0x3cb43ade	0.022000726
49	0xbb8942a7	-0.004188854
50	0xbd3d92ef	-0.046282705
51	0xbd8a776b	-0.067610584
52	0xbc8278da	-0.015926767
53	0x3cc99925	0.024609158
54	0x3e096261	0.13416435
55	0xbdb2f842	-0.08738758
56	0xbe1842e0	-0.14869261
57	0x3dc9c7b7	0.09852546
58	0x3dd397b8	0.103316724
59	0xbdf29885	-0.11845497
60	0x3dd72b44	0.10506299
61	0x3d566b68	0.052348524
62	0xbd590b40	-0.052989244
63	0x3cb830a8	0.022484139
64	0x3db5fb34	0.08885804
65	0x3e217747	0.15768157
66	0xbe289f43	-0.16467004
67	0x3dcc9719	0.09989757
68	0x3df309da	0.118671134
69	0x3e088b4a	0.13334385
70	0xbd716a51	-0.05893928
71	0x3d42f5d2	0.047597714
72	0xbe0e87ed	-0.13919039
73	0xbc1576a8	-0.009122528
74	0x3c582883	0.0131932525
75	0x3cfd2c31	0.030904861
76	0x3d1bb69e	0.038015954
77	0xbd28bea7	-0.041197445
78	0x3e16aabd	0.14713569
79	0x3d42b8e0	0.04753959
80	0x3e1a7a72	0.15085772
81	0xbdbd6531	-0.09247816
82	0xbe24d3ff	-0.16096495
83	0xbe7ca4cd	-0.24672242
84	0xbdfa49bb	-0.12221094
85	0xbe258ae2	-0.16166261
86	0x3c92fd66	0.017943095
87	0xbe3021fe	-0.17200467
88	0x3dc761ab	0.097354256
89	0x3e08fcf9	0.13377751
90	0xbd93f53f	-0.07224511
91	0xbdc60597	-0.09669035
92	0xbdb62568	-0.088938534
93	0x3d0379cb	0.032098573
94	0xbd940c86	-0.07228951
95	0xbe3dee33	-0.18547897
96	0xbd1f1637	-0.038839545
97	0x3e1b1d20	0.15147829
98	0xbca35ad6	-0.019940775
99	0x3dee7d37	0.116449766
100	0x3e10964c	0.14119834
101	0x3d3d824e	0.046266846
102	0x3c8bab37	0.017049415
103	0x3d7cb9fd	0.06170081
104	0x3c8cc64e	0.017184403
105	0x3c4cac7e	0.012492297
106	0x3e81a9e9	0.25324944
107	0x3e45971d	0.19295926
108	0x3dda9b72	0.1067418
109	0xbd25b90e	-0.040459685
110	0xbbb1173d	-0.0054043815
111	0xbe5b1989	-0.2139646
112	0x3c2bfde9	0.010497549
113	0xbd07f86b	-0.033195894
114	0xbd8ca45c	-0.068672866
115	0x3e367ac1	0.17820264
116	0xbddc5f47	-0.1076036
117	0xbe37bac0	-0.17942333
118	0xbe165f90	-0.14684892
119	0x3e069e18	0.13146245
120	0x3e12f193	0.14349966
121	0xbd3a969e	-0.045553796
122	0x3e4280ba	0.18994418
123	0x3d926e8c	0.071499914
124	0x3d11191d	0.03542434
125	0x3da29dad	0.079402305
126	0x3d0d5bda	0.034511425
127	0x3db88c32	0.09011115
128	0x3e8301e1	0.2558737
129	0x3e20d584	0.1570645
130	0x3c0764a4	0.008263741
131	0x3e349e71	0.17638566
132	0x3e1e3272	0.15448931
133	0xbd022e9e	-0.03178274
134	0xbd5646a6	-0.05231347
135	0xbc09efd7	-0.008418999
136	0x3d73973a	0.059470393
137	0xbc8e048d	-0.017336154
138	0x3e0b2952	0.13589981
139	0xbe557377	-0.20844828
140	0xbe443540	-0.19160938
141	0xbda7342c	-0.08164248
142	0xbd1fd15d	-0.039018024
143	0xbd5f9be5	-0.054592032
144	0x3e2ddc80	0.16978645
145	0xbe407a8b	-0.18796746
146	0xbe5211c3	-0.20514588
147	0xbe07aef5	-0.13250335
148	0xbe630f7b	-0.22173874
149	0xbb385b6e	-0.0028130668
150	0xbe2e05ac	-0.16994351
151	0xbd39c54d	-0.045354176
152	0x3c8be90f	0.017078904
153	0xbd477476	-0.04869505
154	0x3d9c78ff	0.07640266
155	0xbc9f3398	-0.019433782
156	0x3de93d31	0.113886245
157	0x3e10485e	0.14090106
158	0x3d0b36d7	0.033987846
159	0xbbab4a7b	-0.0052273846
160	0xbe6b00fa	-0.22949591
161	0x3da7be8d	0.081906416
162	0x3d3eb619	0.04656038
163	0x3e801329	0.25014618
164	0x3d66794e	0.05626803
165	0x3cb090a5	0.021553347
166	0xbd93bf1a	-0.07214184
167	0xbc4df1e7	-0.012569881
168	0xbdbba490	-0.09162247
169	0xbd19a28b	-0.03750853
170	0x3e1f8b30	0.1558044
171	0xbd5c092c	-0.053719684
172	0x3da4f23d	0.08054016
173	0x3e09030c	0.13380069
174	0xbdae5960	-0.08513141
175	0xbda8ecaa	-0.08248265
176	0xbd803a0b	-0.06261071
177	0x3c593595	0.013257404
178	0x3d457169	0.04820386
179	0x3db25884	0.08708289
180	0xbdc6a0c1	-0.0969863
181	0xbe1f4ca9	-0.15556587
182	0xbe11b504	-0.14229208
183	0xbd526f06	-0.05137541
184	0x3e0c973e	0.1372957
185	0xbd77937d	-0.06044339
186	0x3e71c7ab	0.23611324
187	0x3db70f11	0.089384206
188	0x3c685a48	0.014181681
189	0xbc121cd7	-0.008918009
190	0x3dd4f9a7	0.1039918
191	0x3dd3e9dd	0.1034734
192	0x3d90b8ac	0.07066473
193	0x3e48e935	0.19620211
194	0xbdc0da06	-0.09416585
195	0x3d77b199	0.060472105
196	0x3de0ab88	0.10970217
197	0x3cf252c5	0.029580483
198	0x3e051dc5	0.12999637
199	0x3b89947f	0.0041986103
200	0x3daa1b34	0.0830597
201	0xbdb3b650	-0.08775008
202	0x3ccc2fb1	0.024925085
203	0x3bccf1c7	0.006254408
204	0x3d894dd5	0.067042984
205	0xbdc36b37	-0.09541934
206	0x3e27b073	0.16375904
207	0xbdf3e620	-0.11909127
208	0xbd0c3b64	-0.034236327
209	0x3cbfcc0e	0.02341273
210	0x3c430f20	0.011905462
211	0x3d1de744	0.03855063
212	0x3d9f4410	0.07776654
213	0x3c4d59b1	0.012533591
214	0xbd942f3f	-0.07235574
215	0x3e0d2adb	0.1378588
216	0xbc7d8609	-0.015473851
217	0x3db40bb0	0.08791292
218	0x3ccfb5ee	0.025355306
219	0x3d95a059	0.073059745
220	0xbe11ecd7	-0.14250503
221	0x3d8c3c64	0.06847456
222	0x3d85fdb4	0.06542531
223	0x3d9d4397	0.07678907
224	0x3d82c8b3	0.063859366
225	0x3d749774	0.05971475
226	0xbd959b90	-0.07305062
227	0x3d347fe5	0.044067282
228	0x3def83f4	0.1169509
229	0xbcfb8b1a	-0.030705977
230	0x3c847a48	0.01617159
231	0xbcd94e46	-0.026526581
232	0x3dc45eee	0.09588419
233	0x3d626b2e	0.055277996
234	0xbcef06c1	-0.029178025
235	0xbd009a86	-0.031397365
236	0xbc85bbfa	-0.016324986
237	0x3c85d5d7	0.016337318
238	0x3db1e6ca	0.08686598
239	0xbc6d1e7d	-0.014472601
240	0xbc094238	-0.008377604
241	0xbd6a5f00	-0.057219505
242	0x3e0e447e	0.13893315
243	0x3e14c0d3	0.14526682
244	0xbe0c376a	-0.13693014
245	0xbd89be94	-0.06725803
246	0xbd4dad38	-0.050214022
247	0x3e15c795	0.14626916
248	0x3e6cfc70	0.23143172
249	0xbdae68e1	-0.08516098
250	0xbd3c7336	-0.04600831
251	0x3d9de98a	0.0771056
252	0xbda43782	-0.080184
253	0x3ddccfb2	0.10781802
254	0x3ce3f1af	0.027825205
255	0x3d87e795	0.06635968

lstm.bias_ih_l0 f4 [256]
0	0x3d82b066	0.063813016
1	0x3dd8f6ea	0.1059397
2	0x3bd8649b	0.00660379
3	0x3e0b1ced	0.13585253
4	0xbd0157e6	-0.031577967
5	0xbdddcc6c	-0.10830006
6	0xbde6d64c	-0.11271343
7	0x3dea18eb	0.11430534
8	0x3d8a74da	0.06760569
9	0x3cf37142	0.029717091
10	0x3cfb31ee	0.030663457
11	0x3ca71d05	0.02039958
12	0xbcbaea7b	-0.022816887
13	0xbdef5f7b	-0.11688133
14	0xbd269488	-0.040668994
15	0x3d0959ff	0.033533093
16	0xbdcaecbc	-0.09908435
17	0x3d0e7467	0.03477898
18	0xbe0fcd77	-0.14043222
19	0xbd8ed288	-0.069737494
20	0x3dc0afc9	0.09408528
21	0xbdd3f7fc	-0.10350034
22	0xbc0750d5	-0.008259018
23	0x3daa7a1b	0.08324071
24	0x3d071892	0.032982416
25	0xbd3fe25b	-0.04684673
26	0x3e321c57	0.17393623
27	0x3dfa9615	0.12235657
28	0x3cbfbb26	0.023404669
29	0xbdd0c561	-0.10193897
30	0xbd75cc59	-0.060009334
31	0x3d315b5b	0.043300014
32	0x3d255c6a	0.040371336
33	0x3cc31d7b	0.023817768
34	0xbd257c1e	-0.04040157
35	0x3dc0ee96	0.09420507
36	0x3dd4ac2b	0.10384401
37	0x3d81f68d	0.06345854
38	0x3d24a467	0.04019585
39	0x3b2f9948	0.0026794244
40	0xbcefe5f2	-0.029284451
41	0xbce9d0d4	-0.02854196
42	0x3daeedf4	0.0854148
43	0x3e03881e	0.12844893
44	0x3daedd4e	0.08538304
45	0xbdab86e0	-0.08375335
46	0xbc883ff7	-0.016632063
47	0xbb7ea0ea	-0.0038853236
48	0x3cf78730	0.03021583
49	0xbdd26a04	-0.10274127
50	0x3da2129c	0.07913706
51	0x3d972984	0.07380965
52	0x3cd4f0fc	0.025993817
53	0x3dfc8e3b	0.12331816
54	0x3da7e270	0.081974864
55	0x3da866fb	0.08222767
56	0x3df406cc	0.11915359
57	0x3dc44772	0.095839396
58	0x3e06f7c9	0.1318046
59	0x3de8cc33	0.11367073
60	0xbd92b603	-0.07163622
61	0x3da7ebc5	0.08199266
62	0x3dcbd955	0.09953562
63	0xbbef92e5	-0.0073112124
64	0x3dee086c	0.116227
65	0xbd1df283	-0.038561355
66	0x3d9a4c45	0.075340785
67	0x3e16f2ec	0.14741105
68	0xbcb32693	-0.02186898
69	0xbd751d1b	-0.05984221
70	0xbd5c29ae	-0.053750686
71	0x3e90d29a	0.28285676
72	0xbd19d9ea	-0.037561335
73	0xbdaa69bf	-0.08320951
74	0x3c7462a0	0.014916092
75	0xbcdbbd90	-0.026823789
76	0x3e44342f	0.19160531
77	0xbde66d61	-0.11251331
78	0x3d20133c	0.039080843
79	0xbdb68808	-0.08912665
80	0x3ca85fa0	0.02055341
81	0x3dee576a	0.11637767
82	0x3e053be9	0.13011135
83	0xbd1dae67	-0.0384964
84	0x3d9181d5	0.071048416
85	0xbd9ea081	-0.077454574
86	0xbd41d375	-0.0473208
87	0x3cb1f0da	0.021721292
88	0xbd4f1261	-0.050554637
89	0xbd81b74d	-0.0633379
90	0x3d6a2c19	0.05717096
91	0x3d298bd8	0.04139313
92	0xbb884245	-0.0041582906
93	0xbcc6ebb8	-0.024282321
94	0xbce018fd	-0.027355665
95	0xbd5e5248	-0.05427769
96	0x3d2a8b8e	0.041636996
97	0x3c2f4285	0.010697012
98	0x3c77dafc	0.015127894
99	0xbda66c9b	-0.081261836
100	0xbd9f5dfc	-0.07781598
101	0x3dd1ed3c	0.10250327
102	0xbc0da492	-0.008645194
103	0x3d47fb39	0.04882357
104	0xbccea197	-0.025223536
105	0x3d94cc82	0.07265569
106	0x3d58f053	0.052963566
107	0x3dc97a37	0.09837764
108	0xbde54bfe	-0.11196135
109	0xbd74cedb	-0.059767585
110	0x3c28d6d3	0.010305124
111	0x3d59322b	0.05302636
112	0x3ba1af3b	0.004934219
113	0x3d1b7435	0.03795262
114	0xbd5aed9a	-0.05344925
115	0xbd7eeca1	-0.062237386
116	0x3d41b68c	0.04729323
117	0xbcc73a53	-0.024319803
118	0x3db9f3a4	0.09079674
119	0xbd9ea3f3	-0.077461146
120	0x3e6d85f6	0.23195633
121	0xbd4cfe81	-0.0500474
122	0x3d5cbd1b	0.053891283
123	0x3e148a4b	0.1450588
124	0x3dc671c6	0.09689669
125	0xbc685a26	-0.014181649
126	0x3c3b7094	0.011440415
127	0x3da6ac05	0.08138279
128	0x3c0e0c71	0.008669958
129	0xbdab5c8b	-0.083672605
130	0xbd674082	-0.056458004
131	0xbb4386ed	-0.002983506
132	0xbd28b3ab	-0.04118697
133	0x3d717d9f	0.058957692
134	0x3c2c219b	0.010506059
135	0x3d028a5c	0.03187023
136	0x3cd64670	0.026156634
137	0xbd8b590c	-0.06804094
138	0x3ddaf7c1	0.106917866
139	0x3dcce662	0.100048795
140	0xbd0c9d4d	-0.0343297
141	0x3d9f848c	0.07788953
142	0xbd052914	-0.03250988
143	0x3b2b3340	0.0026123077
144	0x3da4703b	0.08029219
145	0xbd84fa33	-0.06493034
146	0xbd549973	-0.051904153
147	0x3caf8ece	0.0214304
148	0xbd33d1dc	-0.04390131
149	0xbced27d0	-0.028949648
150	0xbcfac4fa	-0.030611504
151	0xbd8181da	-0.06323595
152	0x3dd3c85c	0.1034095
153	0xbcbac700	-0.022799969
154	0xbc938fa7	-0.018012835
155	0xbde8a8b8	-0.113603055
156	0x3d4ef8ad	0.050530124
157	0xbbf48a9e	-0.0074628135
158	0xbdfdea59	-0.12398214
159	0xbd93cb15	-0.07216469
160	0x3da0736d	0.07834516
161	0xbc5ec6ae	-0.013597174
162	0xbdb8de26	-0.090267465
163	0xbd98cfc9	-0.07461507
164	0x3d788bdf	0.060680266
165	0xbb962da1	-0.004583076
166	0x3d9e7342	0.077368274
167	0xbc44616d	-0.011986119
168	0x3d917403	0.071022056
169	0xbd8d9112	-0.069124356
170	0xbd45ddd8	-0.04830727
171	0x3d076b2a	0.033061184
172	0x3dd11fce	0.102111444
173	0xbd7c23bd	-0.06155752
174	0xbdc74b89	-0.09731204
175	0xbd9b579d	-0.0758507
176	0xbde7169c	-0.11283609
177	0x3d4fe0d2	0.050751515
178	0x3c15760d	0.009122384
179	0xbdb2501b	-0.08706685
180	0xbdb6d28c	-0.089268774
181	0xbd9dc620	-0.07703805
182	0x3d11bbb2	0.03557939
183	0x3e036317	0.12830769
184	0xbd7a5bbc	-0.06112264
185	0x3dc6eaaf	0.09712731
186	0xbde1551d	-0.11002562
187	0xbd364335	-0.044497687
188	0x3b99a494	0.0046888087
189	0xbc1f253e	-0.009713469
190	0x3d2d645f	0.04233205
191	0xbd56eba1	-0.052470807
192	0xbd0f35dd	-0.034963477
193	0x3d1d6b2b	0.03843228
194	0xbd1afa37	-0.03783628
195	0x3e06d1f8	0.13166034
196	0x3dbd0a7d	0.09230516
197	0x3da24308	0.079229414
198	0x3dd02cb9	0.1016478
199	0xbd193737	-0.037406173
200	0x3da503b9	0.08057351
201	0xbd1e40e3	-0.0386361
202	0x3d980ac2	0.07423927
203	0x3d0c1358	0.034198135
204	0x3e0384aa	0.12843576
205	0x3deb9254	0.11502519
206	0x3ac2d1be	0.0014863533
207	0x3d8ea1d1	0.06964458
208	0x3d9fd071	0.07803429
209	0xbdae7c62	-0.08519818
210	0x3dcf504f	0.101227395
211	0xbcca3ef9	-0.02468823
212	0x3e062d52	0.13103226
213	0x3cbffd9f	0.023436366
214	0x3d929742	0.071577564
215	0xbdc5445c	-0.09632179
216	0x3bc7961f	0.006090894
217	0x3d2ada00	0.041711807
218	0xbca139bb	-0.019680848
219	0x3c7f2e6a	0.015575031
220	0xbcd2b31b	-0.02572017
221	0x3d91919e	0.071078524
222	0x3ddc00de	0.10742353
223	0xbd320df5	-0.04347034
224	0xbcebd448	-0.028787747
225	0x3d7ef1ec	0.062242433
226	0xbda8c7c7	-0.082412295
227	0x3dd87fe0	0.10571265
228	0x3c175c7f	0.009238361
229	0x3d7ac425	0.061222214
230	0x3d159c4d	0.036526013
231	0x3c243c04	0.010024074
232	0x3d9c2fee	0.07626329
233	0xbde2bab0	-0.11070764
234	0xbddf2ab6	-0.10896818
235	0x3e2e5072	0.17022875
236	0x3dcd7af4	0.10033217
237	0x3ceee194	0.029160298
238	0xbc789e19	-0.015174412
239	0xbd3a7897	-0.04552516
240	0x3e0559a1	0.13022472
241	0x3dcc65c1	0.099803455
242	0x3de82876	0.11335842
243	0xbcadfe1c	-0.021239333
244	0xbb6db640	-0.003627196
245	0x3da8f585	0.08249954
246	0x3c98bed8	0.018645689
247	0xbc953ecc	-0.01821842
248	0x3e45b8d6	0.1930879
249	0x3ce780dc	0.028259687
250	0xbdbea906	-0.093095824
251	0xbd3edba1	-0.046596173
252	0x3df39924	0.11894444
253	0x3e26304a	0.16229358
254	0x3d2a0d16	0.041516386
255	0x38afc4bf	8.381297e-05

lstm.bias_hh_l0 f4 [256]
0	0x3dbf7d05	0.093500175
1	0x3dd1e0c4	0.10247949
2	0x3c9a4e5e	0.018836197
3	0x3d98274d	0.07429371
4	0xbd998c3b	-0.0749745
5	0x3dc93362	0.098242536
6	0xb98b154a	-0.00026528008
7	0x3ca63751	0.020290049
8	0xbcbc1a53	-0.022961771
9	0x3d23e3cb	0.040012162
10	0xbe0b5de1	-0.1361003
11	0x3e033d95	0.1281646
12	0xbdb16286	-0.0866137
13	0x3d2c083f	0.04200005
14	0xbc21bac7	-0.009871191
15	0xbdc1c58d	-0.09461508
16	0x3d6351a5	0.055497784
17	0xbcf420f0	-0.029800862
18	0x3ba451a3	0.0050146147
19	0x3db97c55	0.090569176
20	0x3d9d91a7	0.076937966
21	0xbcd1c46e	-0.02560636
22	0xbd289df1	-0.04116625
23	0x3cf0ef70	0.029411048
24	0xbc516053	-0.012779313
25	0xbda43af0	-0.08019054
26	0x3dc8438d	0.09778509
27	0xbdc0dbf5	-0.094169535
28	0xbe121c1e	-0.14268538
29	0xbd1610c7	-0.036637094
30	0x3de1af63	0.110197805
31	0xbc77f8cc	-0.015135001
32	0x3de172a1	0.11008192
33	0x3dd269be	0.10274075
34	0xbd2256cf	-0.03963357
35	0x3de5e50d	0.112253286
36	0xbd915ea8	-0.07098132
37	0xbb994f39	-0.0046786335
38	0x3e3f6538	0.18690956
39	0xbb595132	-0.0033159968
40	0x3c6450cc	0.013935279
41	0x3bcda6e6	0.0062759994
42	0x3db536e0	0.08848357
43	0x3db2a4e1	0.087228544
44	0x3dcdd523	0.10050418
45	0xbd7da32d	-0.061923195
46	0x3bc65f45	0.0060538375
47	0x3c9ba0b9	0.018997537
48	0x3da29ed2	0.07940449
49	0x3dc8b1fe	0.09799574
50	0x3d85abed	0.06526933
51	0x3cbcaae1	0.0230307
52	0xbbf8dbf8	-0.0075945817
53	0x3dc955ca	0.09830816
54	0x3d9945f8	0.074840486
55	0x3ccf667a	0.02531742
56	0x3d6df226	0.05809226
57	0x3db22533	0.086985014
58	0x3caf96f6	0.021434288
59	0xbd5081c1	-0.050904993
60	0xbd876252	-0.0661055
61	0x3d9ad302	0.07559778
62	0xbd8c7451	-0.06858123
63	0x3d6349a4	0.05549015
64	0x3d91457d	0.07093332
65	0xbd485eb3	-0.048918437
66	0x3d62e204	0.055391327
67	0x3d01ecb7	0.03171989
68	0x3dee8c9b	0.11647912
69	0xbdd291f4	-0.102817446
70	0x3d141160	0.036149383
71	0x3daeaf65	0.085295476
72	0x3d2b83e6	0.041873835
73	0x3df2fbc6	0.11864428
74	0xbd3b7f80	-0.04577589
75	0x3ddba532	0.10724868
76	0x3e660569	0.22463001
77	0xbbd7dcf7	-0.0065876204
78	0x3dc19ece	0.09454118
79	0x3e0159a9	0.12631859
80	0x3dfe8660	0.12427974
81	0x3e041ebf	0.12902354
82	0x3cf067d9	0.029346393
83	0x3e09ec9e	0.13469169
84	0x3e8fabfe	0.28060907
85	0x3da7ffce	0.08203088
86	0xbde47753	-0.11155572
87	0xbd8da1cc	-0.06915626
88	0xbe00b941	-0.12570669
89	0xbbcb7564	-0.0062090624
90	0x3d41d440	0.047321558
91	0xbccd19a1	-0.025036635
92	0xbd5f0418	-0.054447263
93	0x3d91ca6c	0.07118687
94	0xbd5606aa	-0.05225245
95	0x3df56e13	0.119838856
96	0xbda86759	-0.08222837
97	0xbdea7cd8	-0.11449593
98	0x3e123b0b	0.14280336
99	0x3dc3a71a	0.095533565
100	0xbcce5633	-0.025187587
101	0x3ccc8106	0.024963867
102	0x3dc64d2c	0.09682688
103	0x3e37c61e	0.1794667
104	0xbd8a9914	-0.067674786
105	0x3df59068	0.11990434
106	0xbc836be4	-0.016042657
107	0x3e65c36a	0.22437826
108	0x3d9f481b	0.07777425
109	0xbd70881f	-0.058723565
110	0x3e01068d	0.12600155
111	0x3e2faf30	0.17156672
112	0x3d9941fa	0.07483287
113	0xbdbd2b27	-0.09236746
114	0xbdb0c802	-0.086318985
115	0x3e1fa1d0	0.1558907
116	0x3d21009e	0.03930723
117	0x3d3e3d11	0.046444956
118	0xbc90827b	-0.017640343
119	0xbdcb192d	-0.09916911
120	0x3e215d5a	0.15758267
121	0xbb03f4bf	-0.0020134894
122	0xbdd59713	-0.10429206
123	0x3e00734d	0.12543984
124	0x3ca76944	0.020435937
125	0x3db68618	0.08912295
126	0xbd878355	-0.066168465
127	0xbccdac7e	-0.025106665
128	0xbd423933	-0.04741783
129	0xbdf9e805	-0.12202457
130	0x3d40c86d	0.04706614
131	0xbd623b1c	-0.055232152
132	0x3db4ec9e	0.08834194
133	0x3dc42696	0.09577672
134	0xbdf8c646	-0.12147193
135	0xbbd7108d	-0.0065632523
136	0x3d223670	0.039602697
137	0x3d94e5ed	0.07270417
138	0xbdd6c724	-0.10487202
139	0xbdc9fc37	-0.09862559
140	0xbdc95c17	-0.09832018
141	0xbd8c245f	-0.06842875
142	0xbd9f4f86	-0.0777884
143	0x3d72a49a	0.059239008
144	0x3cd8685c	0.02641695
145	0x3df829f0	0.12117374
146	0x3c70989c	0.014684822
147	0x3d8fe23a	0.07025571
148	0xbd706180	-0.058686733
149	0xbda67046	-0.08126883
150	0xbdb1a61d	-0.08674262
151	0x3dad891e	0.08473419
152	0x3d38d081	0.04512072
153	0xbde8320b	-0.1133767
154	0xbcbdda4f	-0.023175387
155	0x3d65985f	0.056053516
156	0xbdd05019	-0.101715274
157	0xbd5f0b17	-0.054453935
158	0xbd2e7882	-0.042595394
159	0xbd7721e5	-0.06033506
160	0x3d808e10	0.06277096
161	0x3db82dca	0.089931086
162	0x3c4bb2d2	0.012432771
163	0xbdcd4baf	-0.10024201
164	0xbc243677	-0.010022751
165	0x3d9f8cb6	0.0779051
166	0xbd6f2807	-0.058387782
167	0xbd49f0dc	-0.049301967
168	0x3c812ff8	0.015769944
169	0xbd3393b2	-0.043842025
170	0x3c8cc392	0.017183099
171	0x3dd2d60a	0.10294731
172	0xbe0062c3	-0.12537675
173	0xbe00b722	-0.1256986
174	0xbd2d22ae	-0.0422694
175	0xbd226316	-0.039645277
176	0xbd41d17f	-0.04731893
177	0xbcdfbdaa	-0.027312119
178	0xbdb94c86	-0.09047799
179	0x3b608fb8	0.003426535
180	0xbd1a9ccf	-0.0377472
181	0x3da88230	0.08227956
182	0xbb8e72bb	-0.004347173
183	0x3dae9f8c	0.08526525
184	0x3cd5780f	0.026058225
185	0x3df6b56c	0.12046322
186	0x3d162442	0.036655672
187	0xbc92392b	-0.017849525
188	0x3deeaa51	0.11653579
189	0xbdb91c03	-0.09038546
190	0x3d822fb6	0.063567564
191	0x3dd4f1d4	0.103976876
192	0xbd11a714	-0.03555973
193	0xbd216da9	-0.03941122
194	0x3da765e8	0.08173734
195	0x3d12f324	0.03587641
196	0xbdc86a70	-0.09785926
197	0x3d8c9a2e	0.06865345
198	0x3cfa1d8d	0.030531669
199	0x3c4591c2	0.012058677
200	0x3d698994	0.05701597
201	0x3dac1c8e	0.08403884
202	0xbcc50f39	-0.02405511
203	0xbd4f4cbe	-0.050610296
204	0x3dec1e48	0.11529213
205	0xbdacb7ff	-0.08433532
206	0x3c4b6b7c	0.012415763
207	0xbd8d110a	-0.068880156
208	0x3dbc957b	0.09208199
209	0x3d8b6fc7	0.06808429
210	0x3dcd2d22	0.10018374
211	0xbd20f81c	-0.039299116
212	0x3e0dc6a4	0.13845307
213	0x3cde1806	0.027111065
214	0xbbe28b7b	-0.0069136
215	0xbce767b4	-0.028247692
216	0x3d8766de	0.06611417
217	0x3c41ccb6	0.011828592
218	0x3e33e62a	0.1756827
219	0xbb848d02	-0.0040451298
220	0xbdf9c701	-0.1219616
221	0x3d3601d0	0.044435322
222	0xbd1c76f6	-0.038199387
223	0x3d437361	0.047717456
224	0xbd32fd71	-0.04369873
225	0xbd9fe22c	-0.07806811
226	0x3c6cb535	0.0144475
227	0xbcb1b746	-0.021693837
228	0xbb546b44	-0.0032412568
229	0x3cb1043c	0.021608464
230	0xbb80093e	-0.0039073518
231	0xbd1397ec	-0.036033556
232	0x3d6b723c	0.05748199
233	0xbd8dec75	-0.06929866
234	0xbd62029b	-0.055178266
235	0x3c3939dd	0.0113053
236	0xbd8b0027	-0.067871384
237	0x3cc639fc	0.024197571
238	0x3d8db44b	0.06919154
239	0x3dde6fd1	0.10861171
240	0x3ded6f43	0.11593487
241	0x3bfd9ccf	0.0077396403
242	0xbd97cca1	-0.07412077
243	0x3e117a8c	0.14206904
244	0xbdeaef67	-0.114714436
245	0x3decb461	0.11557842
246	0x3be0c61f	0.0068595554
247	0x3db071f5	0.086154856
248	0xbcf90b10	-0.030400783
249	0x3de7743c	0.11301467
250	0x3dc2a4dc	0.09504101
251	0xbc21aded	-0.009868127
252	0xbcf5e3a1	-0.030015768
253	0x3e22bddd	0.1589274
254	0xbe0e47bf	-0.13894556
255	0x3e05b3e4	0.13056904

regime_embed.weight f4 [3, 8]
0	0x3f1aab14	0.60417295
1	0x3f247c4d	0.6425217
2	0x3ff516d0	1.9147587
3	0xbf0c0fb6	-0.54711473
4	0xbfb66548	-1.4249659
5	0xbf2fc973	-0.6866676
6	0x3d45de8f	0.04830795
7	0x3fc03c67	1.5018433
8	0x3f241ff2	0.64111245
9	0x3e9eb955	0.31000772
10	0x3f9dd38c	1.2330184
11	0x402d5200	2.70813
12	0x3dd42d98	0.10360259
13	0xbdd090ef	-0.10183894
14	0xbf2f93ec	-0.68585086
15	0x3f253f97	0.64550155
16	0xc04ffe34	-3.2498903
17	0xbe96e4d8	-0.2947147
18	0xbe967457	-0.29385635
19	0xbf91f781	-1.1403657
20	0xbec91180	-0.39271164
21	0xbf54cb44	-0.8312266
22	0x3fca5e64	1.5810056
23	0x3e7dd5e7	0.24788629

fc.weight f4 [1, 72]
0	0xbd8fb2cf	-0.07016527
1	0x3d8321a1	0.064028986
2	0x3b00c9bb	0.001965149
3	0x3dd28a68	0.10280305
4	0x3c0904d0	0.008362964
5	0x3d8a1831	0.067428954
6	0x3d5e34b6	0.054249488
7	0x3bf10ece	0.007356501
8	0xbd7010a1	-0.05860961
9	0x3d71a51c	0.05899535
10	0xbd14b580	-0.036305904
11	0x3d4f74bd	0.05064844
12	0xbc619a45	-0.013769691
13	0x3db8fd8c	0.09032735
14	0x3d7df7cf	0.062003907
15	0xbdd651ce	-0.10464822
16	0x3da4e646	0.08051734
17	0x3c6599ec	0.014013749
18	0x3d5afaa3	0.053461682
19	0x3d002c98	0.031292528
20	0x3c35f76b	0.011106352
21	0x3d52125f	0.05128705
22	0x3dbfeccd	0.09371338
23	0xbda16577	-0.07880681
24	0x3d99043a	0.07471509
25	0x3db9e102	0.0907612
26	0x3cd74f4c	0.026282929
27	0xbd2ed745	-0.042685766
28	0x3d76db6c	0.06026785
29	0x3db76ebb	0.08956667
30	0x3c8d5e98	0.01725702
31	0xbda5f6dd	-0.08103726
32	0x3de9d2aa	0.11417134
33	0x3dd00a2a	0.10158189
34	0xbdadf9ba	-0.08494897
35	0x3d1e65e5	0.038671393
36	0xbd2c5042	-0.042068727
37	0xbd994205	-0.07483295
38	0x3d4ad8de	0.049523227
39	0xbcff2de2	-0.031149808
40	0xbcf72919	-0.030170964
41	0x3dac95a6	0.08426981
42	0x3d6d3f90	0.057921946
43	0x3c3c0735	0.011476328
44	0x3db2b1d3	0.087253235
45	0x3db43f23	0.08801105
46	0xbd371cd5	-0.04470523
47	0xbd64582e	-0.055748157
48	0x3d3e3806	0.046440147
49	0x3d276a93	0.04087312
50	0xbd2a213c	-0.0415356
51	0xbc3056df	-0.010762899
52	0x3c121097	0.008915088
53	0xbd4a3622	-0.04936803
54	0xbbd9c747	-0.00664607
55	0xbd9dac71	-0.07698906
56	0x3d6ef69d	0.058340658
57	0xbc7f30e9	-0.015575626
58	0x3d721ced	0.059109617
59	0xbd5c36d4	-0.053763226
60	0xbd3d2ad3	-0.04618342
61	0x3d282c57	0.04105791
62	0x3dbb129d	0.091344096
63	0x3cb59f32	0.022170637
64	0xbda1baf9	-0.0789699
65	0x3c923f37	0.017852409
66	0x3e0a2583	0.13490872
67	0x3d87f959	0.06639356
68	0x3b2b2077	0.002611188
69	0x3d91b92c	0.07115397
70	0x3d966b94	0.07344738
71	0x3d6fe290	0.058565676
