model_A.pt (torch, 74775 bytes, 5 tensors)

lstm.weight_ih_l0 f4 [256, 5]
000000 92 3a 22 be 67 1d cc 3d ce 15 17 3e e3 0c d6 bd
       -0.15842655 0.099665456 0.14754412 -0.10451677
000010 e8 2c 47 3e 67 b2 b4 3d f6 d9 fa 3d ec 57 e6 bd
       0.19450724 0.0882309 0.12248604 -0.112472385
000020 d0 75 56 3d 38 db b0 3d 09 1d ad bd cc 18 2c be
       0.05235845 0.08635563 -0.08452804 -0.16806334
000030 78 ca de b9 17 40 0d be e8 70 b5 3d 54 3e ed 3d
       -0.0004249399 -0.1379398 0.08859426 0.11584154
000040 88 dc 12 3c 92 c9 d8 3d 9a f4 cc 3c 19 46 f0 3d
       0.008963712 0.105853215 0.025018979 0.1173212
000050 92 4a 35 3d b1 09 9a 3d a0 e0 ce 3d 0d 24 69 3e
       0.04426057 0.0752138 0.101014376 0.22767659
000060 d4 ea dc 3d bb 3f ea 3d e1 c6 dc 3d 14 26 14 3e
       0.107869774 0.11437937 0.10780121 0.1446765
000070 ca 91 f3 3d 25 9a ee 3d 94 5b d8 3d 80 94 94 bb
       0.118930414 0.116504945 0.10564342 -0.004534304
000080 59 20 d3 3d 02 c2 9a 3d 55 fa c0 bc f9 8c de bd
       0.10308904 0.07556535 -0.023556868 -0.10866732
000090 7a fb 6f 3d be b8 91 bd 40 9e 28 be 30 7e 16 be
       0.058589436 -0.07115315 -0.16466618 -0.14696574
0000a0 96 18 77 3d 2a 25 85 bd 17 fa d6 3d 78 25 95 3d
       0.06032618 -0.06501229 0.104969196 0.07282537
0000b0 d2 10 84 bc 7a 7a 97 bd c7 60 f4 bc 2f 4e 47 3d
       -0.016121302 -0.073964074 -0.029831303 0.048658546
0000c0 ac 6f 03 be 9b 57 aa 3d 62 14 1c bd c2 ed d5 3d
       -0.12835568 0.08317491 -0.038105376 0.10445739
0000d0 a4 29 d7 bd ac 27 cb bd 6d 40 90 3d 1f 09 56 3d
       -0.10505989 -0.09919676 0.07043538 0.052254792
0000e0 41 49 9e 3d 94 6d f0 3d bd ad 66 bd de 4c 62 bb
       0.07728816 0.1173965 -0.056318033 -0.003453068
0000f0 e4 34 46 3c a4 bc 60 3d 48 6a a1 3d 70 a3 a2 3d
       0.012097571 0.0548674 0.078816 0.079413295
000100 88 64 f6 3c 6a f5 21 bd 2e 9d 01 3d 00 5e 12 bd
       0.030077234 -0.039540686 0.03164404 -0.035734177
000110 c7 e9 e9 bd 88 2a 81 3e 3e 6c 93 bd e1 ce 7a 3d
       -0.114215426 0.2522776 -0.0719838 0.06123245
000120 89 33 c6 3d 42 ac c1 3d ee dc 2c 3d 8e 8a af bc
       0.09677798 0.09456684 0.042202882 -0.021428373
000130 5d f2 eb 3c 5c 8c ac 3c cf 7a c9 3d 65 bb 7f 3c
       0.028802091 0.021063022 0.09837877 0.015608643
000140 ed e9 a4 3c 79 f2 d2 bd b8 4e cb 3c 6d f2 e5 3c
       0.020131076 -0.10300154 0.02481781 0.0280697
000150 61 5d ae bd 34 53 e6 bc 5f c2 6a 3d 1d ac fa bd
       -0.08513904 -0.028115846 0.057314273 -0.12239859
000160 a5 eb 76 3d f9 9c 82 bd d2 c8 82 3d 6a ff 5a 3d
       0.060283322 -0.063775964 0.0638596 0.053466238
000170 c1 2f 74 bc cb a9 6e 3d de f4 ca 3d 38 d2 9c 3d
       -0.014903964 0.058267396 0.09909986 0.076572835
000180 03 11 eb bd 1b 91 ce bd c0 9b ee 3d 39 d9 c0 bc
       -0.11477854 -0.100862704 0.11650801 -0.02354108
000190 3b 77 6e bb 44 7d 7b bd 39 4a 5e 3d e5 27 9a 3c
       -0.0036386985 -0.06139876 0.054270003 0.018817851
0001a0 42 04 13 3d 3d b3 79 3c a9 3d c2 3d fe 21 bb 3d
       0.035892732 0.015240488 0.09484417 0.09137343
0001b0 3e c8 d3 3d 61 d7 0b 3e 54 3f 87 3a 70 d2 e5 bc
       0.103409275 0.1365638 0.0010318556 -0.028054446
0001c0 cd 9c d2 3d 08 4f 16 3e e2 6d 7a 3e 6d e3 f1 bd
       0.102838136 0.14678586 0.2445598 -0.11810956
0001d0 e2 c5 1b 3d cf e8 07 bd e1 a1 20 bd 22 c6 e1 3d
       0.038030513 -0.033181008 -0.03921688 0.11024119
0001e0 89 ae ed bc 72 0d 8f bc 25 eb ec 3d b6 1d 0f be
       -0.029013889 -0.017462466 0.11568288 -0.13976178
0001f0 bc f6 03 3e 3c 98 60 3d 10 82 9d bd fc 83 1e 3e
       0.1288709 0.054832682 -0.07690823 0.15480036
000200 0d 4e 5f bd 43 1f ec 3d 89 00 37 3e b4 1b b3 bd
       -0.054517794 0.115294 0.17871298 -0.08745518
000210 98 db 6c bd b5 32 41 3e 68 3c fc bc db 09 07 bd
       -0.05782661 0.18867 -0.030790523 -0.032968383
000220 60 71 e6 bd 28 03 f2 bd 62 1b 75 bd 74 b2 de 3c
       -0.11252093 -0.11817008 -0.059840567 0.027184702
000230 6e 5f 23 bd d7 19 8e 3d 89 a5 c0 3c cd 00 27 3d
       -0.03988593 0.06938522 0.023516433 0.040772248
000240 55 7c 57 3d 70 05 8a bc 0d 50 1a 3e 20 65 86 bd
       0.052608807 -0.016848296 0.150696 -0.06562257
000250 08 d4 d8 3d 8b 31 b7 3d 5b 2d 97 3c a8 f3 4c 3d
       0.10587317 0.089449964 0.018454244 0.050037056
000260 2c 13 47 bd 15 20 12 bd 91 27 90 3d 8a 4e f5 bc
       -0.048602268 -0.035675127 0.07038797 -0.029944677
000270 3e d3 a2 bc 61 96 f0 bd 8f 65 ce bb cc 12 4f 3e
       -0.019876119 -0.117474325 -0.006298728 0.20222014
000280 c4 0c b2 bd 25 4d 78 bd 90 e5 66 3d a9 dd 8b 3d
       -0.08693841 -0.060620446 0.05637127 0.06829388
000290 2b ab 5f 3d bb 20 6c 3c 5f e5 13 be 11 f7 c4 3d
       0.054606598 0.0144121 -0.14442967 0.09617437
0002a0 11 32 30 3e a5 60 39 3a 6d c3 47 3d f8 dc c6 bd
       0.17206599 0.0007071591 0.048770357 -0.09710115
0002b0 00 24 6d 3c 76 c0 11 be e0 f4 d7 bd 87 a3 b1 3d
       0.014473915 -0.14233574 -0.10544753 0.086737685
0002c0 1c 0c 12 3e 95 36 03 3e 54 32 c9 3d 6b 9e a7 3c
       0.14262432 0.1281379 0.098240525 0.020461282
0002d0 a8 f9 81 3d c9 42 db 3d 21 d7 c2 bc 0a 0b c6 3d
       0.06346446 0.10706098 -0.023784222 0.09670074
0002e0 2a 4f a1 bd 07 9b 80 3d da b3 42 3c 19 2a 99 bc
       -0.078764275 0.06279569 0.0118837 -0.018696832
0002f0 50 8c 7c 3d c2 60 78 3d 53 86 49 3d b6 6a 97 3d
       0.06165725 0.06063915 0.049200367 0.073934
000300 c6 67 e1 3d a8 2f 63 3d 90 40 e9 3d f7 4b a8 3d
       0.11006121 0.05546537 0.113892674 0.08217614
000310 e5 93 81 3d 68 11 7f bd c3 0b 06 3e 17 4b a5 bd
       0.06327037 -0.06227246 0.13090424 -0.08070963
000320 5e 56 fa 3d b6 20 40 3d d9 3c 9d bd ff a3 0c be
       0.122235045 0.046906196 -0.076776214 -0.13734435
000330 a2 71 6a 3e b9 1c 82 3d 3f f0 32 3d b6 71 17 3e
       0.2289491 0.06353135 0.043686148 0.14789471
000340 4a 8b 00 3e ae 41 ce bc eb af e8 bd 02 ec 0f bd
       0.12553135 -0.025177803 -0.11361679 -0.035137184
000350 4d 34 1c 3e aa 8a 71 3d e6 67 95 3c 90 20 ac bc
       0.15254326 0.05897013 0.01823802 -0.02101162
000360 dc ac 1f 3e fe a3 de bc c0 53 42 3c 27 e9 13 3e
       0.15593284 -0.027177807 0.011860788 0.1444441
000370 de 49 a5 bd fb c5 02 3e 94 25 89 bd bb f6 fd 3c
       -0.0807073 0.12770836 -0.066966206 0.03100144
000380 e4 88 84 3c 4f d5 e1 3d 05 4e 34 bd ef e5 0a bc
       0.016178556 0.110270135 -0.044019718 -0.008477672
000390 eb 1c b6 bd e9 c2 cd bd 92 91 a9 bc d7 61 d4 3d
       -0.088922344 -0.10046942 -0.020699296 0.10370224
0003a0 3f 94 aa bc 17 61 87 3d 67 36 25 3d 15 0a a6 bc
       -0.020822642 0.06610315 0.040335085 -0.02026848
0003b0 1d 53 bf bd 03 71 1e 3c c2 22 2b bd c4 4b ae 3d
       -0.093420245 0.009670499 -0.041781195 0.08510545
0003c0 66 59 a4 3c fb d8 ba 3d 72 f1 ba bd 1e c9 94 bd
       0.02006216 0.09123417 -0.09128083 -0.072649226
0003d0 89 c4 90 3e 44 8f ad 3a 03 c7 26 3e dc b0 a1 3d
       0.28274944 0.0013241549 0.16286854 0.078950614
0003e0 65 c7 1e 3e 53 58 6f bd db b4 a2 bd bc 91 2f bd
       0.1550575 -0.058433842 -0.07944652 -0.042863593
0003f0 3f 48 a4 bd e4 46 ca bb 16 65 c7 ba 65 6b 60 3c
       -0.08021592 -0.0061730016 -0.0015212621 0.01369748

lstm.weight_hh_l0 f4 [256, 64]
000000 bc 1c 42 be 4c 43 36 be fa a3 74 be 31 e5 76 3e
       -0.18956274 -0.17799109 -0.23890677 0.24110867
000010 81 a2 b4 3c c3 c8 6a be 0f c1 fb bc c6 90 f5 3c
       0.022050144 -0.22928147 -0.030731706 0.02997626
000020 29 fa b6 3d c7 df 66 3d 43 bb 45 3d 97 95 f2 bd
       0.08934433 0.056365754 0.04827429 -0.11844938
000030 3d b8 2c be cc e5 43 be ef 57 bb 3d 8f db 9d bd
       -0.16867156 -0.1913063 0.091476314 -0.07707893
000040 b5 05 33 be 10 1c 1d 3e f3 ac 7f bd 1a a3 3b 3b
       -0.17482646 0.15342736 -0.062420797 0.0028631152
000050 32 71 56 3c d4 6f 80 bd df 04 50 be 8e 39 e8 bb
       0.013088511 -0.062713295 -0.20314358 -0.007086939
000060 4d ac 08 3e 13 71 08 be 56 fb 48 be 58 a0 c1 3c
       0.13346978 -0.13324384 -0.19627127 0.023636028
000070 0f 08 08 3c 8a 4b 16 3c 23 bd db 3d f0 71 e9 bd
       0.008302703 0.009173283 0.10729434 -0.11398685
000080 c6 df 28 3e 94 62 16 3e 8c 65 63 bd 73 55 06 be
       0.16491613 0.14686042 -0.055516765 -0.13118534
000090 16 2c 00 be 06 56 bf bc c3 4b 10 3d 3f 9d 03 3e
       -0.12516817 -0.023356449 0.035228502 0.12852953
0000a0 84 e2 b3 bd df cc 2e 3d ce df 81 bd 5b b4 6e 3e
       -0.08783439 0.04267585 -0.063415155 0.23310988
0000b0 d2 a4 07 3e 47 fc 11 3e bd 72 15 be 6c e3 81 3d
       0.13246468 0.14256392 -0.1459455 0.063422054
0000c0 92 82 4f 3e 95 18 1a be b0 6d 40 bd 12 f4 c3 bd
       0.20264652 -0.1504844 -0.046979606 -0.09568037
0000d0 72 0b bc bd f2 03 11 be 49 81 c4 bd 19 f9 69 bd
       -0.091818705 -0.14161661 -0.09594972 -0.057122324
0000e0 52 86 0e 3d c2 fd 8f bd a7 e8 b8 bb da ec 99 3c
       0.034796067 -0.07030822 -0.0056429687 0.018789697
0000f0 12 63 19 be 22 ea 97 bd 6a 8b 60 be 0b 8c 86 3c
       -0.14979199 -0.07417704 -0.21928182 0.0164242
000100 60 01 8b 3d 8e e7 6d bd 46 b5 cf 3d 96 4a 10 3d
       0.06787372 -0.058082156 0.10141997 0.03522738
000110 b1 20 55 bd 35 fd fd 3c 54 08 db 3d d9 97 94 bd
       -0.05203313 0.031004528 0.10694948 -0.07255525
000120 fe e2 52 bc 16 dc fb bd 6b 22 61 3d 05 4a b5 bd
       -0.012871502 -0.122978374 0.054964464 -0.08852009
000130 d3 43 c2 3d b1 00 4e 3d f7 16 d8 bc 0c fc 05 ba
       0.09485593 0.050293628 -0.026378138 -0.0005111105
000140 80 3a bf 3c f8 ce 05 3d 4b fa 03 3d ee 46 ae 3a
       0.023343325 0.032668084 0.03222112 0.0013296285
000150 96 83 8d bd 97 d4 10 bd 27 7d 89 3d d3 b8 fc bc
       -0.06909864 -0.03535899 0.06713324 -0.03084985
000160 90 ca 5b bd 83 15 05 bd 0b 99 19 3c 17 52 b3 3c
       -0.053659976 -0.03249122 0.009374867 0.02188973
000170 d9 fe 54 3d 88 75 6f 3d d3 18 04 3e c3 48 92 3d
       0.052000854 0.058461696 0.12900095 0.071427844
000180 70 79 f1 3d 7a f1 c8 3d bf af 09 be b3 7a f1 bd
       0.117907405 0.09811683 -0.13445948 -0.11790981
000190 20 dd 95 3d 42 80 30 3e 2f 7e 53 3e ff b8 a7 3d
       0.07317567 0.17236426 0.20653604 0.08189582
0001a0 cd 75 c1 3d e7 dc c7 bb 14 38 f3 3d c7 1b bf bd
       0.09446297 -0.0060993317 0.118759304 -0.0933147
0001b0 03 cc 83 3d 39 2f a9 bd b3 af ed 3d dc df e2 3d
       0.064353965 -0.0826096 0.116057776 0.11077854
0001c0 91 26 bc bd b9 5b e6 bc 17 09 c2 3d b9 81 ba 3d
       -0.091870435 -0.028119909 0.0947439 0.09106774
0001d0 56 8e 8e bd 27 82 9f bc 49 a3 b4 bd 8a 30 24 be
       -0.06960742 -0.019471241 -0.08820207 -0.16034141
0001e0 6f e6 9d 3c 2c 25 04 3d a6 4b 2e be cb b1 c9 bb
       0.019274918 0.032262012 -0.17021045 -0.006155228
0001f0 6e f5 a4 3c 3f 4a a4 bd 11 66 47 3e a7 ce ee 3d
       0.020136561 -0.08021974 0.19472529 0.116605096
000200 b7 fd 5c bd 6c ac 19 3e b1 71 c2 bd ed 2b 69 bd
       -0.0539529 0.1500718 -0.09494341 -0.056926657
000210 60 fc 0b bd 4d c2 29 be 1f f6 7c bc 39 f7 7c be
       -0.03417623 -0.16578026 -0.015439539 -0.24703683
000220 16 ca c1 bb e1 94 8b 3d 2e 8e 3b 3d f8 ee 7e ba
       -0.005913983 0.06815506 0.04578989 -0.000972494
000230 c9 26 8d bd c5 66 ed bd db 3a 3c bd a3 f9 07 be
       -0.06892163 -0.11591867 -0.045954566 -0.13278823
000240 f3 ff 03 be a8 7c a6 bc 2f cd 24 be 34 2d 8b 3d
       -0.12890606 -0.020323113 -0.16093896 0.06795731
000250 a7 92 94 3d ba 70 1a be 0d d9 83 bd 4d 29 1b 3d
       0.07254534 -0.15082064 -0.064378835 0.037881184
000260 dd 55 0e 3e 36 29 20 bb d6 bb 1b be 1b ae e3 bd
       0.13899942 -0.0024438626 -0.15208372 -0.11117192
000270 0f 3b f7 3d ff 2d d9 bd 08 4f 0d bd db 38 af bd
       0.120718114 -0.10604476 -0.0344992 -0.08555766
000280 cf 4f ea bd d2 c7 1f 3e 52 41 6b bd 1a 84 b0 3d
       -0.114410035 0.15603569 -0.05743534 0.086189464
000290 69 1d b7 3d 40 2f a6 3d 60 4c 2f bd 4d 14 86 bd
       0.089411564 0.08114481 -0.042797446 -0.06546841
0002a0 e6 78 d5 bb 25 d6 10 3d e1 31 7e 3d a9 d5 05 3e
       -0.0065146564 0.035360474 0.062059287 0.13069786
0002b0 ff 0b 12 bc c6 8b ea 3d 51 60 95 bd 6b 0e 41 bd
       -0.008913993 0.11452441 -0.072937615 -0.04713289
0002c0 a9 fd 81 3e 01 e5 33 be fd 3a b6 3d fb 1c 82 3d
       0.2538884 -0.17567827 0.0889797 0.06353184
0002d0 16 99 a3 3d d0 9f 3b 3b ce 74 2b bd a3 83 c3 3d
       0.07988183 0.0028629191 -0.04185944 0.09546592
0002e0 c2 be 03 3d 3c 3b b2 bd a6 15 e9 bd 11 17 68 3d
       0.032164343 -0.08702704 -0.11381082 0.056662623
0002f0 ab 8f f5 bb e4 08 4d bd c8 05 48 bc 08 4c 00 be
       -0.007493933 -0.050057307 -0.01220841 -0.12529004
000300 26 f4 e0 bd 98 a9 93 be 8a ee 40 be 79 4a 30 3c
       -0.109840676 -0.28840327 -0.18840995 0.010759943
000310 e1 4e 13 be 70 1c 34 3e af f8 49 3e 1a 0d 43 be
       -0.14385559 0.17588973 0.19723772 -0.19047967
000320 f8 7d fb 3c 5d 2e 4e be dc 20 19 bd fb 58 2d be
       0.030699715 -0.20134874 -0.037384853 -0.16928475
000330 92 fd 05 3e 88 57 9f bd 93 54 2d 3d 0e c5 9a 3d
       0.1308501 -0.07780367 0.042316984 0.075571164
000340 e8 bd 19 be 53 c3 4e be 14 45 8d bd bc 5f 27 3e
       -0.1501385 -0.20191698 -0.06897941 0.16345114
000350 0b 0b 20 3e 54 53 eb 3d a9 09 a2 3d b8 08 5b 3d
       0.15629213 0.11490503 0.07911999 0.05347511
000360 79 12 b7 3c 6d dd 8f be 74 bc 2d be e9 9d 8f 3d
       0.022347676 -0.28098622 -0.1696642 0.07012541
000370 92 8f a5 bd 16 9c b2 bd e2 c8 60 3d 38 26 2e bd
       -0.080840245 -0.08721177 0.054879077 -0.042516917
000380 d6 1f 1f 3e ed e5 19 be 37 e5 52 be 0c cf 22 bd
       0.15539488 -0.15029116 -0.20595251 -0.039748237
000390 c4 4b a5 3c ee a4 65 3e c4 37 90 3d 0f 32 25 3d
       0.02017773 0.22426197 0.070418864 0.040330943
0003a0 5b 69 52 3d a8 10 dc bc 65 fa bf 3d 7c 71 f6 bd
       0.051370006 -0.026863411 0.09373931 -0.12033364
0003b0 17 4e 85 3d 96 d7 0b 3e a3 16 10 be 2e 67 82 3d
       0.06509035 0.13656458 -0.14071135 0.06367336
0003c0 ee c6 87 bd d1 d9 f0 bd bf f8 ec bd a0 3b 4e be
       -0.0662974 -0.11760295 -0.11570882 -0.20139933
0003d0 cc d2 84 3c e7 c2 f4 bd 27 de bc bd c5 cd 57 bd
       0.016213797 -0.11951237 -0.0922206 -0.05268647
0003e0 e3 28 ed 3d d9 ec 72 be d6 17 4d be 2e bf f9 3d
       0.11580064 -0.23723163 -0.20028624 0.12194668
0003f0 57 4e a9 bd 66 c5 e3 bd ec 2c fa 3d 5f a7 35 be
       -0.08266895 -0.11121635 0.122155994 -0.17739628

lstm.bias_ih_l0 f4 [256]
000000 c0 4e 03 3e 7a a9 01 be 24 88 7c 3d fd 78 54 bd
       0.1282301 -0.12662306 0.06165327 -0.051873196
000010 56 a9 29 bd 5e b3 55 3d 5c d5 7e 3d 8b ea 11 3d
       -0.041421257 0.05217301 0.062215194 0.03562407
000020 c3 ba 48 3c 55 5a ba 3d a8 e4 8a 3b 32 1f e4 bd
       0.012251559 0.09099261 0.0042386837 -0.111387625
000030 42 b5 4f 3d d6 18 28 bd ae 1c a1 bd 9a f3 bc 3d
       0.05070997 -0.04103931 -0.07866798 0.09226151
000040 32 c8 e0 3a 17 20 99 bd 7f 80 d7 bd 40 d6 8f b7
       0.0017149507 -0.07476824 -0.105225556 -1.7146696e-05
000050 8f 55 2f bd bb b1 2c 3d 9b 3a 00 3e ab 1c 82 3d
       -0.042806204 0.042161684 0.12522356 0.06353124
000060 10 bb 1e 3d 1c 55 ec 3c 42 a7 33 3e 7a 92 ac bd
       0.038752615 0.028849177 0.17544273 -0.08426376
000070 f8 5c 78 3d e4 c6 60 3d 4c e0 6b bb 0d 5c d2 3d
       0.060635537 0.054877177 -0.0035991846 0.102714635
000080 1e 83 93 bb 8c 2e 0d bd 36 c2 c9 3c 1c 79 6e bd
       -0.0045017144 -0.03446822 0.02462874 -0.058220968
000090 40 39 f9 bd 7e 87 be 3c cd 46 78 bd 31 30 80 3d
       -0.12169123 0.023257967 -0.060614396 0.06259192
0000a0 73 07 f2 3d 31 1a 04 3c 8b af 05 3e 99 58 7b 3e
       0.11817827 0.008062885 0.13055246 0.24545516
0000b0 e0 dd f2 bd 6c fe 88 bc 55 58 82 3d 7c ab de 3d
       -0.118587255 -0.01672288 0.06364504 0.10872552
0000c0 a8 c4 4b bc ba b8 92 bd 25 18 27 bd 43 35 a6 3d
       -0.012437023 -0.0716414 -0.04079451 0.081156276
0000d0 94 ca 39 3d 50 3b c4 bc 1d f5 fd 3d 8f 2e 19 be
       0.04535921 -0.023954064 0.12400267 -0.14959167
0000e0 55 04 80 3d c8 e6 8c bd 52 9c 93 3d cc fd 0f bc
       0.06250826 -0.068799555 0.0720755 -0.008788537
0000f0 dc 22 47 3d 4e dd de bd 15 a9 db bd 94 e2 e9 3b
       0.04861723 -0.10882054 -0.10725609 0.007137606
000100 6e d1 69 bd 12 9e 22 3c 74 41 a5 bd 8b 1d d6 bd
       -0.057084493 0.009925382 -0.08069125 -0.104548536
000110 6d 1c ee bc 89 02 6c 3d fc 26 3b bc 7e 8c 23 3d
       -0.029066289 0.057619605 -0.011422869 0.039928906
000120 b0 09 a6 3d fa 85 12 3d 65 13 d6 3d ad c3 b2 3c
       0.081073165 0.0357723 0.10452918 0.021821821
000130 a0 26 88 bd 33 df 30 3e 34 03 bc bd f2 13 70 3d
       -0.06647992 0.17272644 -0.091802984 0.05861277
000140 3b eb ef 3c 83 9a 47 bc 14 56 86 3d b8 84 b9 3d
       0.029286971 -0.012182835 0.06559387 0.09058517
000150 3d 2b 8c bd cb 1d 1f 3e 3d 56 a4 3d ff ec 92 bc
       -0.068441845 0.15538709 0.08024261 -0.017935274
000160 94 ad d5 3c 2b be 17 bd d1 53 ee 3d 6b 78 d3 3d
       0.026083745 -0.037046593 0.116370805 0.10325702
000170 99 e4 c1 3d 2c a5 da 3d 38 e2 50 bd bd 7e 0a 3d
       0.0946743 0.10676035 -0.05099699 0.033812273
000180 c2 25 c9 3d d0 e7 08 3e fe 90 05 bc 21 fc 10 bd
       0.09821655 0.1336968 -0.008152245 -0.0353967
000190 2d 2a c5 3b c0 6f bf bc 6f 9b 2f 3c 62 6e f7 3d
       0.0060169906 -0.023368716 0.010718211 0.12081601
0001a0 08 30 1d 3e 94 fc 03 3b d8 0c 10 3e 6b 9d b7 3e
       0.15350354 0.0020139562 0.140674 0.35862288
0001b0 2b 31 d2 3d 42 0d 20 bd 50 c5 40 3c 53 ea a4 bd
       0.10263284 -0.039075144 0.011765793 -0.08052506
0001c0 10 5b b3 3d fa 37 4e 3d e1 cb e9 3c d1 b4 72 3d
       0.08757603 0.050346352 0.0285396 0.05925447
0001d0 b7 d1 62 bd bb 2b e7 3c ff 25 41 bc fb 6c 28 bd
       -0.05537578 0.028219094 -0.011788844 -0.041119557
0001e0 30 a6 8a bd e2 56 8a 3d 68 1d 75 3d 34 08 b3 3c
       -0.06769979 0.06754853 0.059842497 0.021854497
0001f0 ef 38 80 3d 2f ff a1 3d 5a fa a9 3d f8 70 fa bc
       0.06260859 0.079100005 0.08299704 -0.030571446
000200 f3 f1 84 bc a3 3b c8 bc ee 2f f6 bd 00 e1 d9 bd
       -0.016228652 -0.0244425 -0.120208606 -0.106386185
000210 da a7 e1 3d 38 2f ab 3d be 94 ab 3d 1b 36 42 bd
       0.11018343 0.08358616 0.0837798 -0.04741488
000220 b6 1c 8c bd 74 1e c2 3d 56 39 84 bd 53 ed 6a bc
       -0.06841414 0.09478465 -0.064562485 -0.014338809
000230 84 8f 60 bd 9e 7d 95 3d 6d 54 14 3e 5f 38 f0 bc
       -0.054824367 0.0729935 0.14485331 -0.029323755
000240 f1 86 4f 3d 41 de ba bd 4b 19 02 3e d5 d1 a7 bd
       0.0506658 -0.09124423 0.12704961 -0.08194319
000250 67 03 39 3c 03 5f 15 be e2 1e 35 3d fb 0d 11 3d
       0.011292315 -0.14587025 0.044218905 0.035413723
000260 7c 57 90 3c 06 64 dc 3d a2 42 60 3d 2b a4 11 3e
       0.01761984 0.107612655 0.054751046 0.14222781
000270 59 bd 83 3d ea 9f 07 3d 4f 0c c8 bd da bd d3 bd
       0.064325996 0.03311149 -0.09767973 -0.10338946
000280 81 f6 34 bd 91 b0 f4 bd 2e 5b 80 bd 92 70 c6 bd
       -0.044180397 -0.1194774 -0.06267391 -0.0968944
000290 75 e0 87 3d f3 a8 f4 3d 1a 52 87 3b 32 d4 cb bc
       0.06634609 0.11946287 0.0041296603 -0.024881456
0002a0 51 f2 93 bd 22 4c de 3d f5 06 ff 3d e9 c1 12 bd
       -0.072239526 0.10854365 0.12452499 -0.03582946
0002b0 dc 64 9f 3d 5e 3d d3 bd 04 1c 4b bc ab c1 0a bd
       0.07782909 -0.10314439 -0.012396816 -0.033876102
0002c0 e9 ab 67 3d 04 19 b2 bc 6c 97 90 bd 6a 35 97 3d
       0.05656043 -0.021740444 -0.070601314 0.07383235
0002d0 dc 13 b5 3c f8 80 1d 3d 1b 70 10 be 42 db 88 bb
       0.022104196 0.038453072 -0.14105265 -0.004176528
0002e0 6c 2e 18 bd cd bc c6 bd 3c 44 3a bd e0 d7 9c bd
       -0.037153646 -0.0970398 -0.04547523 -0.076583624
0002f0 37 fc 3e 3d 79 38 dc bd a8 7c a9 bd b5 e6 6c bd
       0.04662725 -0.10752959 -0.082757294 -0.057837207
000300 71 39 b9 3b 19 9d a4 3d 39 1d fb 3d 9c 04 71 bd
       0.0056525995 0.080377765 0.12261433 -0.058842286
000310 5a 0f 1b 3e 68 af b6 bd d9 b1 8e 3c e2 8d 1a 3d
       0.15142575 -0.08920175 0.017418789 0.037732966
000320 7d 54 6e 3b eb a5 1a bc 93 c5 83 bc 2f 48 85 bd
       0.0036366277 -0.009438972 -0.016085422 -0.065079086
000330 b6 8f a1 3d 39 de 69 bd 5f 8a f6 3d bb 68 ac 3d
       0.07888739 -0.057096694 0.12038111 0.08418413
000340 01 a7 78 3d e5 fa e8 bd 1e cb 9b bc 97 43 56 3c
       0.060706142 -0.11375979 -0.019017752 0.013077638
000350 fc d5 3c 3d 24 b9 c1 bb 69 0f 9a bc dd 4c d0 3d
       0.04610251 -0.005911963 -0.018806176 0.101709105
000360 d0 2f df bd 57 d9 50 bd 2a f6 80 3b b1 0e 51 3d
       -0.108977914 -0.05098852 0.003935595 0.0510394
000370 20 fb b9 bc e4 cd 65 bd fc d7 8b bc 7e 79 8c 3d
       -0.022702754 -0.056104556 -0.017070763 0.0685911
000380 f6 2a 41 3d 94 d2 b3 bc 46 78 0d 3d 94 a4 b8 bd
       0.04716011 -0.021950997 0.03453853 -0.09015766
000390 a3 b9 f1 bd c8 4c 59 3d 83 f3 4c bd bc ea 80 3d
       -0.118029855 0.05305174 -0.05003692 0.06294772
0003a0 9c 80 83 bd db 0e 12 be a8 72 55 3c b4 66 94 3d
       -0.06421015 -0.1426348 0.013027824 0.072461516
0003b0 5d ec 22 3d 1e a7 9a 3d 18 f2 ac bd 79 60 7c 3b
       0.039776195 0.07551406 -0.08444613 0.003850965
0003c0 ac 94 f4 3d 77 14 86 bd bd a7 4f bd 5e 9a 1e 3d
       0.119424194 -0.06546872 -0.050697077 0.038721435
0003d0 02 ea 31 39 0d 39 a2 bd aa 03 b8 3d d6 1b eb bd
       0.0001696721 -0.07921038 0.08985074 -0.11479919
0003e0 67 f5 88 bd 25 c3 c0 bd f3 f3 c0 bd 10 82 7c bc
       -0.06687432 -0.09412221 -0.094215296 -0.015411869
0003f0 4b b1 1f bd b4 1b d9 3d 7e a3 86 3d 65 8f 90 3d
       -0.03898744 0.10600987 0.065741524 0.070586

lstm.bias_hh_l0 f4 [256]
000000 9e 0c 3e bc ef 9f a2 3d 12 42 dd bd 7d b5 93 bb
       -0.011599688 0.07940661 -0.108036175 -0.004507719
000010 0b bb c6 3d 55 31 11 bc c6 38 94 bd 8d 21 d2 3d
       0.09703644 -0.008861859 -0.07237391 0.102603056
000020 f4 65 e7 3d 99 f7 97 3c 9c f7 2f bd be fe 0d be
       0.11298743 0.018550681 -0.042960748 -0.13866708
000030 ab 85 21 3e 19 0b e3 3d e5 34 9e bd 9f 86 a4 bc
       0.15773647 0.11086101 -0.077249326 -0.020083724
000040 f8 e4 f9 bc 8e 46 41 bd b8 8e f2 3d 50 f9 91 bd
       -0.030504689 -0.047186427 0.11843628 -0.07127631
000050 5f 51 f0 bd 3b 49 0c 3e 91 3d 7c bd fd f2 4c bd
       -0.1173427 0.1369981 -0.06158215 -0.05003642
000060 76 47 ae 3d c4 45 82 bd 73 6e 94 bc c2 f2 cb bd
       0.08509724 -0.06360963 -0.018119073 -0.09958412
000070 7c ec 0a be b9 42 95 bc 84 12 66 bc db b3 a1 bd
       -0.13566774 -0.018220292 -0.0140425 -0.07895633
000080 31 57 18 3d 09 93 c4 3c 53 7b 1f bd 81 c3 8f 3d
       0.037192527 0.023995893 -0.03893597 0.07019711
000090 b6 4f bd 3c cb ba 07 3e 76 07 9b 3d 6d d5 8c 3c
       0.023109298 0.1325485 0.075697824 0.017191613
0000a0 bc 3d 1e bd 58 8e fa bc 92 ed d0 bd d7 89 4d 3d
       -0.038633093 -0.030585453 -0.10201563 0.050180282
0000b0 45 9f f9 bd ec 9f ee 3d 23 34 ea 3d c2 bd 5c 3c
       -0.121885814 0.116515964 0.114357255 0.013472976
0000c0 c7 56 a7 bc c5 fa 65 3c ae c1 61 bb aa 24 65 3c
       -0.02042712 0.014036839 -0.0034447717 0.013985792
0000d0 f8 52 0a bc 0d cf a3 bd fe 8f b2 3d f9 d7 19 be
       -0.008442633 -0.07998476 0.087188706 -0.15023793
0000e0 0f 23 f1 bd 81 0d ee 3c b9 57 13 bd 39 a7 22 3e
       -0.11774265 0.029059174 -0.03597233 0.15884103
0000f0 a6 6d 86 bc 0f 2c 0a 3d 30 2c 16 3c b5 1e b9 3c
       -0.016409706 0.033733424 0.009165809 0.02259765
000100 06 d7 86 3d 10 71 ec 3c 88 83 04 bd ed 7c e0 bc
       0.06583981 0.028862506 -0.032352 -0.02740332
000110 ee c2 5a bb a6 6b 08 3e 8d 3c df bd b1 fb 24 3e
       -0.0033380347 0.13322315 -0.10900221 0.16111638
000120 37 af f9 3d c5 de 23 bd 2b dd ff 3d a4 96 85 3d
       0.12191623 -0.04000737 0.12493356 0.06522873
000130 f3 68 08 3e 18 25 18 3e 48 cb 6a 3c f3 89 c1 3d
       0.13321285 0.148579 0.014330693 0.0945014
000140 f4 ee 60 3d d9 0d a4 3a fb 2a 16 3d ae 50 84 bd
       0.054915383 0.0012516334 0.036662083 -0.06460701
000150 24 67 91 3d 90 a0 7e 3d 00 b6 d5 bc 77 5a cb bd
       0.07099751 0.062164843 -0.02608776 -0.09929364
000160 9c c4 88 3d 25 11 10 3e 4d 13 6f 3e 11 80 b7 bd
       0.06678125 0.1406904 0.23347206 -0.089599736
000170 b6 11 8e 3d 3d db 76 3d 04 a7 ce 3d 32 7f fd 3d
       0.06936972 0.060267676 0.100904495 0.12377776
000180 95 bb 9e bd ee 07 5d 3e 8f c0 ad 3d b9 15 50 bd
       -0.07750622 0.21585056 0.08483993 -0.050801966
000190 92 06 c2 3d d6 4a 81 bd ca 25 1f bc 06 b5 10 bd
       0.094739094 -0.06313102 -0.009713599 -0.035328887
0001a0 da 13 24 bd ce 6b ca bd 9d b9 91 ba b9 47 90 3e
       -0.040057994 -0.09883843 -0.0011117939 0.2817972
0001b0 5d aa fd 3c 97 55 b5 3d cd d3 8f 3d 09 da d3 bd
       0.030965025 0.088542156 0.0702282 -0.10344321
0001c0 85 cc d7 bd 45 5a 3d bc ee 74 c4 3d 5e 83 df bc
       -0.10537056 -0.011557166 0.09592615 -0.02728432
0001d0 bc 73 e0 bc fc 77 3e 3c 42 9e e3 3d c1 75 0c bd
       -0.027398936 0.011625286 0.1111417 -0.034291986
0001e0 3b d9 a2 bd 1c ff a3 3d 53 5e fb bc 84 d5 31 3e
       -0.0795159 0.080076426 -0.030684626 0.17366606
0001f0 82 f8 0c 3d 6a 76 b2 bd 73 9c 06 3e 29 d2 32 3e
       0.034416683 -0.08713992 0.13145618 0.17462982
000200 32 4b db 3c bd 12 0b 3d 09 00 b1 3c 1e fb c8 bd
       0.026769254 0.033953417 0.021606462 -0.09813522
000210 54 0f a6 3d 5d 93 42 3c a7 53 23 3d d2 31 be 3b
       0.08108392 0.011875954 0.0398747 0.005804279
000220 9e ce 07 bd 15 17 c7 bd dc 3f dc 3d 1e 73 27 3d
       -0.03315603 -0.097211994 0.10754368 0.04088127
000230 0f f0 d4 3d 7f fb d8 bd 10 c4 10 3d a0 96 36 3d
       0.1039735 -0.10594844 0.03534323 0.04457724
000240 03 46 70 3d b6 6a 79 bd 02 23 09 3d 7a 4e 88 bd
       0.05866052 -0.060892783 0.03348065 -0.06655593
000250 1c b1 5e bd 44 50 51 3d 21 07 0f 3e f3 7b 80 3d
       -0.054368123 0.051101938 0.13967563 0.062736414
000260 78 81 c5 bd a2 5c a3 bd 34 63 46 3d a2 78 b0 bd
       -0.09643835 -0.07976653 0.04843445 -0.08616759
000270 aa 4b b3 3d a9 86 cc bc 5d 73 3f bd 39 49 31 bd
       0.08754666 -0.024966555 -0.04674088 -0.04328272
000280 8a 77 13 3e 42 55 cc 3b f2 d0 9b 3d 72 63 90 bd
       0.1440107 0.0062357495 0.076082125 -0.07050218
000290 ba 5a 4d bd 71 51 8c bc 58 91 eb bd bd 87 df 3d
       -0.05013535 -0.017128678 -0.115023315 0.10914562
0002a0 8b 8b 21 bd c6 ee 9d 3c e1 ca 7a bd 46 dd f8 3b
       -0.03943972 0.019278895 -0.061228637 0.007594737
0002b0 1d ff 99 3d 3e c8 17 3d be 27 91 bd bb dc ec bd
       0.07519362 0.0370562 -0.07087658 -0.115655385
0002c0 42 c4 38 3d e0 c7 c7 bd ec 57 e0 bd 41 59 fd bd
       0.04510904 -0.0975492 -0.1095427 -0.123705395
0002d0 58 81 0f 3e 10 96 ca bd 12 6c d1 bd 40 91 73 3d
       0.14014184 -0.098919034 -0.10225691 0.059464693
0002e0 d9 5b de 3d cc 3b e1 3d 8a 1e af bc 17 72 61 3a
       0.10857362 0.109977335 -0.021376867 0.00086000696
0002f0 aa 12 60 bc 05 8f 8f 3c 23 fc e0 3c e7 46 cb bd
       -0.013676325 0.017524252 0.027463978 -0.09925633
000300 98 90 89 3c 39 0c 74 bd 21 83 ef bc 46 3c 66 3d
       0.01679258 -0.05958197 -0.029237332 0.056209825
000310 a3 3c da 3d c5 b5 f9 bd 2a 2c b0 bd a3 f5 14 3d
       0.10656097 -0.12192873 -0.086021736 0.03636707
000320 fd 1f e7 3d 9f 56 92 3d 10 57 30 3c 25 a0 d8 3b
       0.11285398 0.07145428 0.010762945 0.0066108876
000330 d6 fb dc 3d 3e 0e b5 3d 3e 1f 0b 3d d3 21 93 3d
       0.107902214 0.08840607 0.03396534 0.07184186
000340 28 20 e6 bd 51 b4 fc 3d 14 71 9e 3d b2 a1 8b 3d
       -0.11236602 0.1233908 0.07736412 0.0681795
000350 0e 7d a4 bd 52 85 70 3a cf fe 15 bd 7b 1f 53 bc
       -0.08031665 0.000917514 -0.036619958 -0.0128859235
000360 78 49 f7 bd 1e 69 84 3d f2 04 e5 3d 26 fe 11 be
       -0.1207456 0.06465362 0.11182584 -0.14257106
000370 fd c4 c7 3d ee 0c 6f bd 6c 3f fb 3d e6 c2 21 3d
       0.097543694 -0.05836194 0.12267956 0.03949251
000380 bb 38 e1 bd a6 c9 00 3e 7f d6 86 bc 6e 9a eb bd
       -0.109971486 0.12576923 -0.016459702 -0.115040645
000390 9d 52 29 bd 99 12 f4 3d e4 f0 77 3d bf 00 cb 3c
       -0.04133855 0.1191761 0.060532466 0.02478063
0003a0 86 bb fb 3d 82 bf 6d bc 1a 5b 91 bc 42 bc f5 3c
       0.12291627 -0.014510991 -0.017743636 0.029996995
0003b0 23 26 de 3d b4 83 03 bd a2 82 9b 3d a2 c8 e2 bc
       0.10847118 -0.032108024 0.075932756 -0.02768356
0003c0 62 b4 8e bd 1d f3 27 ba 27 8e 01 3e d7 0f b8 bd
       -0.06967999 -0.0006406771 0.12651883 -0.08987396
0003d0 42 37 25 3d fc 80 06 bd e3 44 91 3d 35 e7 68 3d
       0.0403359 -0.032837853 0.07093217 0.05686112
0003e0 de 08 95 bd 37 ab 85 bd ec 33 67 bd 82 28 af 3d
       -0.07277082 -0.06526797 -0.056446 0.08552648
0003f0 89 10 88 3d 37 b5 c5 3d 71 d4 81 bd f9 10 0d bd
       0.06643779 0.096537046 -0.06339348 -0.034440015

fc.weight f4 [1, 64]
000000 6e 9b 4e bd 1a dd 67 bc 33 e5 73 bd ee f0 82 3c
       -0.050441198 -0.014151836 -0.059544753 0.015984025
000010 b9 f8 68 3d 44 d3 d2 3d 47 bd dd 3c 2d ce 9e 3c
       0.056877825 0.10294202 0.027067794 0.019385422
000020 32 8c 37 bd b1 f2 ef bc 03 de 5b 3d 3d c7 ed bd
       -0.044811435 -0.029290529 0.053678524 -0.11610267
000030 20 1d 3a bd 7f 75 93 3c 8d 2d 35 3d a1 73 bb 3d
       -0.045437932 0.018000362 0.044232894 0.09152914
000040 ce 46 91 bd 6d 7c 9a bd 72 46 95 3d ce 49 49 bd
       -0.07093583 -0.075432636 0.07288827 -0.04914265
000050 02 c3 4d 3a ef d9 a2 3c a5 5e e0 3d 56 ea 74 bd
       0.0007849188 0.01987931 0.10955552 -0.059793793
000060 72 f2 dc 3d 96 1a 07 be 31 10 6e 3d a1 ce 6d 3d
       0.1078843 -0.13193735 0.05812091 0.058058385
000070 25 d2 54 bc 7e 4e af 3d 4a 41 27 bd 65 c7 04 be
       -0.0129895555 0.08559893 -0.04083375 -0.12966688
000080 28 85 d4 3d 78 e7 d5 bc 22 d1 e6 3d 0b f2 04 3d
       0.1037696 -0.02611135 0.11270358 0.032457393
000090 6f 0a 36 bd 8b b1 0a 3e c0 5b 8b 3d 83 c7 c0 3d
       -0.044443544 0.1354429 0.06804609 0.09413054
0000a0 61 34 44 3d f2 21 98 bd cf 2e 27 3d 78 e1 90 bd
       0.047901515 -0.074283496 0.040816125 -0.07074255
0000b0 c2 8c d9 3d 66 83 32 bd 56 4c 00 be f8 a5 62 bd
       0.106225505 -0.043582343 -0.1252912 -0.05533406
0000c0 6a 4b 4c bd 70 c8 d7 3d ff 12 5f bd 3b 7f 9a bd
       -0.049876608 0.10536277 -0.054461475 -0.075437985
0000d0 71 5f a3 3d 79 60 3d bb 7a f0 cd bd b2 a2 c3 bd
       0.079771884 -0.0028896614 -0.10055633 -0.09552516
0000e0 a9 f8 e7 3d da bd 6e bd b6 38 32 3d 28 9d da 3c
       0.11326725 -0.058286525 0.043511115 0.026686266
0000f0 b6 8c d0 3d 13 98 c6 bd 22 1f d7 3d c0 e1 99 bd
       0.101830885 -0.096969746 0.10503985 -0.075137615
